ddpg/models/critic_params.pth (torch_old, 711892 bytes, 7 tensors)

fcs1.weight f4 [512, 24]
000000 9a 74 ac 3e 58 18 4e be 72 21 6a bd e8 6b 3f 3d
       0.3368271 -0.20126474 -0.057160802 0.046733767
000010 04 03 d3 3e cd e6 2f 3e 03 26 b8 bd 63 2c 3c 3d
       0.41213238 0.17177887 -0.08991625 0.045940768
000020 c5 13 c6 3e a3 9e 96 be 5a 6d 02 bd c5 d5 d8 bd
       0.38686958 -0.29417905 -0.031842567 -0.10587648
000030 28 ae b1 3e 9c 9a 17 bd 4d c7 e8 bc d8 53 5e bd
       0.34703183 -0.03701268 -0.028415347 -0.05427918
000040 19 e3 9b 3e 17 3b c6 bd 2e e5 b5 bd 80 b1 0c be
       0.304467 -0.09679239 -0.08881603 -0.13739586
000050 ee 6e 90 3d bc dc 80 be 27 78 8a bc 2b e8 3e be
       0.07052408 -0.25168407 -0.016902996 -0.18643253
000060 77 a8 93 3d 56 7d 83 3e 13 36 5a 3c 0e 36 cb bd
       0.072098665 0.2568156 0.013318556 -0.099224195
000070 33 b3 8c 3c a3 93 ca be c1 8d 14 bc 63 ee 20 be
       0.017175293 -0.39565763 -0.009067 -0.15715937
000080 f5 a6 2a bd c2 30 f7 3d 10 b7 00 bc 0e 08 a0 bd
       -0.04166313 0.12069847 -0.0078561455 -0.07814036
000090 51 88 19 3e f1 e2 9a be 86 f0 d6 bb cc cb 94 bd
       0.14993407 -0.30251268 -0.0065594343 -0.07265434
0000a0 45 c3 85 be 22 57 bd bd 04 ea d0 3c 88 9b a9 be
       -0.2612554 -0.09245135 0.025502212 -0.33126473
0000b0 f7 18 2e bc 81 1d 28 be 58 31 97 bc 95 b4 a3 be
       -0.010626069 -0.16417505 -0.018456146 -0.3197371
0000c0 9d da 37 3e e7 ad 4e bf 1b 6c 00 bc 67 c4 54 3d
       0.17954488 -0.80734104 -0.007838274 0.051945116
0000d0 be da 7c be f4 0a 03 bf 64 5f f7 bb 1b 7e 71 3d
       -0.24692819 -0.5118859 -0.0075492132 0.058958154
0000e0 0a 79 a4 3d a3 1b 43 bf b4 5b af 3d 73 59 13 3d
       0.08030899 -0.76214045 0.08562413 0.035973977
0000f0 80 3a 0b be b2 33 57 bf 40 8c aa 3d de 27 a0 3c
       -0.13596535 -0.84063256 0.08327532 0.01955026
000100 89 dc 10 3a 58 e0 24 bf f0 92 5c 3d 5d c7 9b 3d
       0.00055260264 -0.6440482 0.053851068 0.07606385
000110 82 59 20 3e ac a4 80 bf 83 1a 32 3c b2 77 ae 3d
       0.15659145 -1.0050254 0.010870579 0.08518924
000120 7f 90 9f 3d e3 1b 10 3d 3a 9e 24 bd f8 f2 02 3c
       0.07791232 0.035182845 -0.04018996 0.007992499
000130 d4 b9 5e bc 1f be 25 be b5 45 47 3c f0 7c 23 bc
       -0.01359411 -0.16185807 0.012162616 -0.009978518
000140 c5 48 12 3e a3 6c a9 bc 44 88 e3 bc cf 14 7e 3d
       0.14285572 -0.020681685 -0.027774937 0.062031563
000150 72 4b 78 3b 8a 5e de bd 54 62 ac 3a c6 d4 28 3c
       0.0037886766 -0.10857876 0.0013151863 0.010304635
000160 88 b7 47 3e 39 07 c4 bc 09 a5 8e bc 9d 1e 70 bd
       0.19503605 -0.023929225 -0.01741268 -0.058622945
000170 48 8e d0 3c 8c 7c 1b be 99 b0 1e bb 0e 30 3e 3c
       0.02545847 -0.1518423 -0.0024214147 0.011608137
000180 26 7a 2b 3f 77 ee 2a bf ca e1 80 bd 0a 5e 0d be
       0.6698326 -0.6677012 -0.06293066 -0.13805404
000190 ff c8 a1 bd a1 40 a5 be cf 49 48 bd 70 af f3 bd
       -0.07899665 -0.3227587 -0.048898514 -0.118986964
0001a0 dd 82 f2 3e 25 87 03 bf 5a 0c f0 bc 3e 49 39 3c
       0.47365466 -0.5137809 -0.029302765 0.011308966
0001b0 d5 23 9b 3d d2 78 f7 be 19 de 57 bd 96 00 5b 3c
       0.07575194 -0.48334366 -0.052702043 0.013366839
0001c0 52 66 14 3f e5 36 33 bf 6d e3 52 3c 47 11 08 3f
       0.5796863 -0.7000564 0.012871605 0.53151363
0001d0 75 59 8c 3d a2 f4 83 be d0 f6 95 bc 0c cb f9 3e
       0.06853 -0.25772578 -0.018306166 0.48787725
0001e0 7e 20 5c 3e cc c9 24 3f 2e a4 00 bd b8 6c a0 bd
       0.2149677 0.6437042 -0.031406574 -0.078332365
0001f0 ce 9a db 3c 7c c3 85 bf dc c7 00 3d b7 7a 38 bd
       0.026807215 -1.0450282 0.0314406 -0.045038905
000200 69 e8 40 3e 41 d9 04 3f 46 44 a1 bd 23 0e 5b be
       0.18838657 0.51894003 -0.0787435 -0.21392111
000210 92 26 ae 3d 8a c8 34 bf 8e 3f 00 be 63 a6 90 be
       0.085034505 -0.706185 -0.12524244 -0.28251943
000220 1a 88 7e 3e 56 38 2d 3f ef 15 0f bd 58 ec 13 bd
       0.24856606 0.67664087 -0.034933027 -0.036114067
000230 48 98 3f 3d 58 21 95 3e f0 d9 69 bd d1 83 8e bc
       0.046776086 0.29127002 -0.057092607 -0.01739684
000240 41 f7 38 3f a5 f9 b0 3e 5c a8 7c 3d 65 5e b5 bd
       0.7225228 0.34565464 0.061683998 -0.08855895
000250 4e 8d f2 3b f6 73 8c bf 5f b7 f4 3b 44 bb 19 bd
       0.0074020987 -1.0972888 0.0074681486 -0.037532106
000260 67 07 a5 3f e7 40 19 3e 14 2e b2 3d 83 4e 66 3e
       1.2892884 0.14966165 0.08700195 0.22490887
000270 8c 11 72 3e aa d7 8e bf de cb a4 3c 20 20 6f 3e
       0.23639506 -1.1159565 0.020116743 0.23352098
000280 7d 4d ba 3e f4 4c b7 3e 01 a4 e9 bc 48 2a 58 3e
       0.36387244 0.35800898 -0.028520586 0.21109879
000290 0f 18 87 3e b6 2b c3 bf 4b 7d cb bc 91 b7 73 3e
       0.26385543 -1.5247715 -0.024840018 0.23800494
0002a0 d3 b0 ad 3d 0c 16 df be f3 da 6e bd 4f d1 50 3e
       0.08480992 -0.43571508 -0.058314275 0.20392345
0002b0 bc df 26 be c2 10 28 be 50 a9 23 3c eb 84 49 3e
       -0.16296285 -0.16412643 0.009989098 0.1967961
0002c0 11 e4 d7 3e 9c 71 a5 be 90 b6 e6 bc fb 32 62 3e
       0.42166188 -0.3231324 -0.028163224 0.2208976
0002d0 e7 25 11 bd de 1f 31 3d eb 6d ff bb 22 49 52 3e
       -0.035436537 0.04324328 -0.0077950857 0.2053571
0002e0 7b 63 ff 3e 0d f4 5a be ad 87 02 3d e1 7d 8b 3e
       0.49880585 -0.2138216 0.03186767 0.27244475
0002f0 1a c5 b0 3e 33 60 62 3e 67 5b 85 3c 30 32 9a 3e
       0.34525377 0.2210701 0.016278936 0.30116415
000300 ba c3 26 3f 3b 51 10 bf 50 d9 02 be 7f 12 7b 3e
       0.65142405 -0.5637395 -0.1277821 0.24518774
000310 b2 1e 96 3d ad bc 00 bf 1d 42 a4 bd 48 0b 65 3e
       0.073300734 -0.50287896 -0.080204226 0.22367585
000320 22 eb e0 3e 7a 63 20 bf 90 24 eb bd ce 88 49 be
       0.43929392 -0.6265179 -0.11481583 -0.19681093
000330 48 0a 53 3c fa 61 90 be 94 2f fd bd 7e f0 3a be
       0.012880869 -0.2819975 -0.123625904 -0.18255803
000340 5f 21 ee 3e 4a 22 3e bf e3 fd 45 3d 57 c6 c9 bd
       0.46509835 -0.7427107 0.04833783 -0.098522834
000350 22 a4 a2 bc b3 d1 14 bf 7a 1f 8f 3b a6 ca 28 be
       -0.019853655 -0.58132476 0.004367766 -0.16483554
000360 54 c3 32 bd ab f0 01 be 9b 25 f3 bb fe 99 b8 bd
       -0.04364331 -0.12689464 -0.0074202544 -0.09013747
000370 65 63 1f 3d 5d 30 1e bf 3c 01 2c ba 01 e5 87 bd
       0.03891315 -0.61792547 -0.0006561463 -0.06635476
000380 f0 fc a4 3e cb a4 04 bf cf 41 05 bd 48 11 3c bc
       0.32224226 -0.51813954 -0.032533463 -0.01147873
000390 09 47 cb 3e 44 27 d1 3e fa 21 02 bd 36 cb cf 3c
       0.39702633 0.4085027 -0.031770684 0.025365453
0003a0 0e db 0b 3f 13 6c 1d bf 74 a1 a0 bc 1f aa ca 3d
       0.54631126 -0.61493033 -0.019608237 0.09895729
0003b0 20 e4 a2 3e e9 63 46 3f 0d 29 9f bc a2 b0 01 3e
       0.3181467 0.774962 -0.019428754 0.12665036
0003c0 db 79 ea 3e 4a 44 01 3f 80 11 4d bd 12 0c 2e 3e
       0.45796093 0.50494826 -0.050065517 0.16996792
0003d0 bf 00 e0 bd 1f 16 2c bf c7 78 5e bd 15 f8 35 3e
       -0.10937642 -0.67221254 -0.0543144 0.17770417
0003e0 52 72 e4 3e eb e4 00 3f 06 6c a0 bd ca bc 4b 3e
       0.4461847 0.503493 -0.07833104 0.19896236
0003f0 8e 9b c6 3d a3 4b 95 bf 07 48 93 bd d4 cd 3b 3e
       0.096976385 -1.1663707 -0.071914725 0.18340236

fcs1.bias f4 [512]
000000 ac dc 16 bf 81 e7 83 3e ef c4 2b be 95 c5 96 be
       -0.5893047 0.2576256 -0.16774343 -0.29447618
000010 9f d3 b2 bc 54 1c 0a bf 1b ee 34 bf 6b 98 ff 3d
       -0.021829424 -0.53949475 -0.7067582 0.12480243
000020 00 58 ed be f6 c4 39 bf 9d 31 c4 be 46 b8 0c be
       -0.463562 -0.72566164 -0.38319102 -0.1374217
000030 57 05 a5 3d 6e 5c f4 3e b7 b1 cf 3e b0 b8 8b 3e
       0.08057659 0.47726768 0.40565273 0.27289343
000040 12 cd 4e be a5 71 cc be e4 1b 70 be 99 9b 88 3e
       -0.20195416 -0.39930454 -0.2344814 0.26681212
000050 42 17 f4 bd 74 59 17 bf c3 9d 48 be 22 a7 a5 be
       -0.119184986 -0.5912087 -0.19591431 -0.32354075
000060 d1 fa fb 3c 07 c9 92 be d1 cf bd 3e 43 25 35 bf
       0.030759247 -0.28668997 0.37072614 -0.7075998
000070 b1 cd b4 be 0f 9b f8 be 7b 90 2c 3d 15 6c d3 3e
       -0.3531318 -0.485558 0.042129975 0.41293398
000080 af a7 a2 be 8a b1 6b be 4d 58 c9 be 73 04 0f bf
       -0.31768557 -0.23016945 -0.3932518 -0.55866164
000090 ab c3 9e be 11 ca 68 3f 96 28 31 bf 11 04 51 be
       -0.31008658 0.9093333 -0.69202554 -0.20411707
0000a0 d8 90 a1 be 16 0c 19 be 09 5b 23 3e c0 d2 b1 be
       -0.3155582 -0.14946017 0.15952696 -0.34731102
0000b0 a4 57 78 be b9 74 52 be c9 bf 24 3e ab 1c 16 bf
       -0.24252182 -0.20552339 0.16088785 -0.58637494
0000c0 17 96 20 3e 80 09 01 3f 4f 8c 32 bf b5 c6 0e bf
       0.15682255 0.5040512 -0.69745344 -0.5577195
0000d0 61 d6 e3 3c 53 80 96 be 3b 62 d4 be 6f d4 ae be
       0.027812185 -0.2939478 -0.41481194 -0.3414645
0000e0 a4 19 67 3e b7 7d dd be 4f f2 87 bf 3e b4 ca 3c
       0.22568375 -0.43259975 -1.0620822 0.02474415
0000f0 75 31 d5 be 60 10 49 be d2 ab d1 3e 4a e5 48 be
       -0.41639295 -0.19635153 0.409514 -0.19618717
000100 ed a3 56 bd 3d 7c 3d be 20 9a d5 be 4b 21 d5 be
       -0.052402426 -0.18504424 -0.4171915 -0.41626963
000110 c6 a5 3e bf 56 cb 17 bf d5 bd be 3d f0 06 a6 3c
       -0.744717 -0.5929464 0.09313551 0.02026698
000120 77 91 08 3f 12 c3 24 3f 76 a9 f3 bd bb 00 ab bd
       0.5334696 0.64360154 -0.118975565 -0.08349749
000130 ed 89 f8 be 68 ef 88 be 56 af 9a be 09 06 be 3d
       -0.4854273 -0.26745152 -0.30211896 0.09278495
000140 1f 5d 74 be f4 35 9c be 17 5a 0a 3e 66 7f 97 bd
       -0.23863648 -0.30509913 0.13510929 -0.07397346
000150 aa 3a d4 bd 67 71 9f be b9 76 dc be 8c 74 90 bd
       -0.10362752 -0.31141207 -0.43059328 -0.070534796
000160 3d cc 89 bd 6d 67 34 3e 18 71 be bf d4 cf 00 be
       -0.067284085 0.17617579 -1.4878263 -0.1257928
000170 71 06 84 3d be 66 13 3f 21 8a 71 bf 47 af a9 bf
       0.06446541 0.5757865 -0.94351393 -1.3256615
000180 91 21 2a 3b 06 31 14 3f 43 69 18 bf 25 bc 47 3d
       0.0025959949 0.57887304 -0.59535617 0.048763413
000190 08 ed fc be dc cf 02 bf c2 ca fe bd 8d 99 3d bf
       -0.4939959 -0.5109842 -0.12441017 -0.74062425
0001a0 2d 88 0d bf 00 b0 fc 3c de da 4e bf c9 f8 17 bf
       -0.5528591 0.030845642 -0.80802715 -0.5936399
0001b0 a0 dd 89 be 2f 40 dc be 53 aa 4b bf db 4c 0c bf
       -0.269269 -0.43017718 -0.7955677 -0.5480477
0001c0 15 a5 9c bf fd ff aa be cb bc 14 bf 20 c9 25 bf
       -1.2237879 -0.3339843 -0.58100575 -0.6476002
0001d0 3b 8e 31 bf d2 86 97 bd a9 82 21 bf 46 88 3d bf
       -0.6935765 -0.07398762 -0.63089997 -0.7403606
0001e0 fd 3b 2d bf 82 6e 01 bf 11 cb 29 bf a2 1b cb be
       -0.6766966 -0.50559247 -0.6632548 -0.3966952
0001f0 bc 39 08 bf 54 c9 b9 be a6 b3 a3 be 38 df ca bd
       -0.53213096 -0.36286414 -0.31972998 -0.09905857
000200 56 6c 2c 3d d3 98 39 bf 0f 13 33 be 83 82 b7 3d
       0.042095505 -0.72498816 -0.17487739 0.0896044
000210 e5 67 43 bf 39 19 ad be 2f 87 52 bf 43 90 41 3e
       -0.76330405 -0.33808306 -0.82237524 0.18902688
000220 4e fa 9a be 42 e0 2b bf 09 e0 f9 be 9d 00 53 bf
       -0.30269092 -0.67139065 -0.48803738 -0.8242281
000230 82 48 f2 be 4c 61 3c be c0 e0 04 bd 54 7b 84 3e
       -0.47320944 -0.18396491 -0.0324409 0.25875342
000240 44 a8 8b bd e6 55 6d 3e f0 f4 72 3b 41 ed 84 3f
       -0.068192035 0.23177299 0.0037072264 1.0384904
000250 8c 7c e5 be 07 ce 74 bf 78 53 6b be e0 58 9b bf
       -0.44821584 -0.9562687 -0.2298106 -1.2136497
000260 9c 98 91 bd fd af b1 be a2 2b 87 be a1 04 4b bf
       -0.07109186 -0.3470458 -0.26400477 -0.7930394
000270 4a 71 47 bd 6f 22 07 bf a2 5b 9b 3e 79 ae bf be
       -0.048692025 -0.52786916 0.30343348 -0.374378
000280 57 67 c5 be 69 52 35 be b9 24 41 bf 76 94 cf bd
       -0.38555405 -0.17707218 -0.7544666 -0.101357386
000290 55 1e 57 bf d0 4f b1 bd 8e 15 dd be d2 19 5d 3e
       -0.8403066 -0.08657801 -0.43180507 0.21591881
0002a0 20 1d 24 be 1f c2 49 3e 96 54 63 3e 3d fb a9 bd
       -0.16026735 0.19702958 0.22200236 -0.08299873
0002b0 7c 81 1b bd be a2 1c bf ee 37 cd bd d0 f0 8c bf
       -0.037965283 -0.61185825 -0.10020433 -1.101099
0002c0 04 1a dc 3d 17 11 1a bf 6d 73 e5 3e 79 f8 76 be
       0.107471496 -0.6018233 0.44814625 -0.24118222
0002d0 77 bc fc be 40 be e0 3e db 69 7b 3e 1e b5 f2 be
       -0.49362537 0.4389515 0.245521 -0.47403806
0002e0 d3 84 02 bf 48 4e c5 bd 11 40 6d 3f c6 42 e3 3c
       -0.50983924 -0.096340716 0.9267588 0.027741801
0002f0 a4 66 b4 3e 0e f6 03 bf 13 95 38 3f e7 67 2c 3e
       0.3523456 -0.51547325 0.7210247 0.1683651
000300 f5 08 21 3e 2e 59 58 be b2 7c 1a bf 7b f2 bc 3d
       0.15726073 -0.2112777 -0.6034652 0.09225937
000310 0a 2b 36 bf e9 37 32 bf 90 c1 84 be b4 25 36 bf
       -0.7115942 -0.6961656 -0.25928926 -0.7115128
000320 4c e4 f8 bd f5 a6 a0 3e 4a 66 b0 be c6 57 5f bf
       -0.12152919 0.31377378 -0.3445304 -0.87243307
000330 2a 81 d0 3e 8f 05 c4 3d 79 c6 3e bc 96 16 4d bf
       0.40723544 0.09571373 -0.011643999 -0.8011259
000340 0b a5 c2 be 56 60 f3 3d 18 f1 a7 be c1 13 06 bf
       -0.38016543 0.11883609 -0.32801127 -0.5237389
000350 48 6e 06 bf f9 87 b2 bd c0 da 85 be ac 6f 40 3e
       -0.52512026 -0.08717341 -0.26143456 0.187926
000360 58 3f 0f bf d8 c8 ab be 6b 61 59 bf 87 dc 00 be
       -0.5595603 -0.3355167 -0.84914273 -0.12584125
000370 5f 2c 04 3f 41 21 4c be f5 34 da be 4d b7 8d be
       0.51630205 -0.1993456 -0.42618528 -0.2767891
000380 f6 c3 a5 3e 1f 5c af be a4 d4 1e bf 18 33 4b be
       0.3237607 -0.3424997 -0.62043214 -0.1984371
000390 07 e8 7a 3e 33 49 81 bf 72 ec d6 bd 90 05 c5 b7
       0.24502574 -1.0100464 -0.10494317 -2.348682e-05
0003a0 4d 7e 93 3d 6c 50 55 bf 50 90 5b bc a5 aa 3f bd
       0.07201824 -0.8332584 -0.013401106 -0.0467936
0003b0 17 97 0b bd 1a 10 06 be 49 c1 16 be aa 44 12 3f
       -0.034079637 -0.1309208 -0.1472217 0.57136023
0003c0 45 df e6 be 66 4d 36 bb b5 37 b7 be f4 40 ce be
       -0.45092216 -0.002781713 -0.3578469 -0.4028393
0003d0 58 e7 22 bf d7 f3 e4 be b1 bf 93 be 92 b6 90 be
       -0.6363425 -0.44717285 -0.28857186 -0.2826429
0003e0 00 f1 05 bf 4b 85 82 bc 98 39 52 bf b4 f8 d3 be
       -0.5232086 -0.0159327 -0.8211913 -0.41400683
0003f0 d0 1c 52 be fb 24 04 bf fc 7b 8f 3e ba 49 25 bf
       -0.20518804 -0.5161893 0.2802428 -0.6456562

fc2.weight f4 [256, 514]
000000 43 59 1c 3d 6e ec fd 3c 5b 46 1d 3d 7b 96 b9 3c
       0.038171064 0.030996528 0.038397174 0.022654762
000010 ce 8d f4 3c 68 7e 45 b9 48 c1 1d 3d db de ab 39
       0.029852774 -0.00018834474 0.038514405 0.00032781702
000020 81 a3 6c 3b 91 06 68 bd c7 41 1f 3d 0f ea 1c bc
       0.0036108198 -0.056646887 0.03888109 -0.009577288
000030 d0 84 8b 3b d6 9c 1d bd 4d 02 c1 bc 82 3a 4d 3d
       0.004257776 -0.03847965 -0.023560667 0.050104626
000040 5a fc 0a 3d 28 46 d7 bc 00 09 05 bd 8e a6 6d bc
       0.033932067 -0.02627857 -0.032479286 -0.014505042
000050 d5 26 90 bc 8c bc a5 3c 30 1e 53 3c 22 33 8d bd
       -0.017596642 0.020231508 0.012885615 -0.068945184
000060 02 e5 21 bd 2f ea 2d bd ef 9a 07 bc 51 2e 11 3d
       -0.03952504 -0.042459663 -0.008276685 0.03544456
000070 ac fd 64 bd fa 5c e6 bd 04 b1 7b bd 0a 19 93 bd
       -0.055905983 -0.112482026 -0.061448112 -0.0718251
000080 75 96 49 3c a0 d4 e1 bc f3 73 63 3c 03 e3 31 bd
       0.012303938 -0.027567208 0.013882625 -0.043429386
000090 80 ef 9a bd be 30 cc 3a 6a 4d 96 3c 98 01 85 3b
       -0.07565212 0.0015578491 0.01834746 0.004059028
0000a0 75 e0 cc 3c 07 51 9d bc 78 4c e5 3c 2e 26 9c bd
       0.025009373 -0.019203676 0.027990565 -0.0762447
0000b0 b6 e0 4b bc 4e fb 44 bb 20 d8 8c bd 63 ee 87 bc
       -0.012443712 -0.0030057016 -0.0687716 -0.016593164
0000c0 51 ba 3a 3d cb 95 c2 bc b7 25 35 bd 71 d7 51 bb
       0.04558784 -0.023753067 -0.04422542 -0.0032019282
0000d0 f6 90 1f 3a de dd 03 3d a1 fd 19 3d a0 1b 13 bc
       0.00060869695 0.03219401 0.037595395 -0.008978754
0000e0 75 39 66 bc 3b 4f 36 bd 08 2e e7 3b 6e 8e 1b 3c
       -0.014051785 -0.044509154 0.007055048 0.009494407
0000f0 19 b9 a3 bc 56 bf a5 bc 54 ee 07 3d 13 e8 54 3d
       -0.019985722 -0.020232838 0.03318627 0.051979136
000100 cb 25 61 bd 65 2f 65 bd a9 71 73 bd 2d 6a 31 bd
       -0.054967683 -0.055953402 -0.059434567 -0.043314148
000110 e5 f7 0c bd 2b 33 c6 bc 50 e0 72 3d 77 9c 1f 3c
       -0.0344161 -0.02419432 0.059295952 0.009741894
000120 e3 37 4e bd 9d 0e 3d bd 0f 37 25 bd 18 d1 8c bd
       -0.050346266 -0.046156514 -0.04033571 -0.06875819
000130 40 3f 8f bd f0 8c 7e 3c 7d cf 9f 3b 57 e1 c8 bc
       -0.06994486 0.015536532 0.0048770295 -0.024521513
000140 0e 98 6e 3d c7 67 7d bd 72 5b 14 bd c3 fa 05 bd
       0.05825048 -0.061866548 -0.03622002 -0.032709848
000150 f0 28 4c bd e5 ae 41 bd 05 36 3b 3d 5e 4d 66 3d
       -0.04984373 -0.047285933 0.045705814 0.056226127
000160 4e 28 06 b9 85 b8 36 bd 62 22 a2 3c 1d 01 2e ba
       -0.0001279425 -0.044609565 0.019791786 -0.0006637739
000170 73 e3 73 bd ca 41 7f bc 8a e1 56 bd f4 18 ac 3c
       -0.059543084 -0.01557965 -0.052461185 0.021007992
000180 ba 12 4a 3c 22 6f 34 3d 61 1a 7d 3c fe 32 35 3d
       0.012333566 0.044051297 0.015448184 0.044238083
000190 42 e0 20 bd 86 1e 38 bc 3c 0b 50 bd ec 5d 08 bc
       -0.03927637 -0.011237746 -0.050791964 -0.008323174
0001a0 3f e7 25 3d ed b8 71 bc 54 bd b7 3c 18 ac 8a bd
       0.040503737 -0.014753562 0.022429146 -0.067711055
0001b0 44 13 e8 bc 77 dc 3d bc ad 21 2b 3d b9 e7 45 bd
       -0.028329499 -0.011588207 0.041780163 -0.04831669
0001c0 aa 71 c5 bc 42 8c 73 b9 6d 2d d7 3b 1e f3 5e bd
       -0.02410205 -0.00023226536 0.0065666945 -0.054431073
0001d0 90 5b 11 3d 27 62 36 3c 9b 40 d5 3c 22 79 33 bd
       0.03548771 0.0111318 0.026031783 -0.043816693
0001e0 f4 ed 42 bd 54 24 e7 bc aa 19 3a 3d 77 a1 04 bd
       -0.04759021 -0.028215565 0.04543463 -0.032380547
0001f0 79 5d c4 3c 6a 83 03 3d df c3 25 bd bc 55 30 bd
       0.023970352 0.032107748 -0.04047 -0.043050513
000200 2e c7 43 bc 59 93 00 3d bb 38 a6 bd 7b f5 71 bc
       -0.011949344 0.03139052 -0.08116289 -0.014768
000210 94 1c 06 3d 5b d1 10 bd 50 99 d9 3c 64 db 40 bd
       0.032742098 -0.035355907 0.026562363 -0.047084227
000220 d1 c3 57 bb eb e8 05 bd 8f 36 65 3c 45 99 ef 3c
       -0.0032923112 -0.03269283 0.013990059 0.02924789
000230 24 0b 57 bd f1 22 cf bc 26 6d 90 bc 49 0f fe bc
       -0.05250086 -0.025285216 -0.017630171 -0.031013148
000240 75 53 a5 bd 66 f4 2e 3c 30 db eb bc dd 9e 62 3b
       -0.08072559 0.010678386 -0.02879104 0.0034579553
000250 fd 1a 9a bd e6 94 11 3d 02 f2 2c bd 0a d2 17 bd
       -0.07524679 0.03554239 -0.042222984 -0.037065543
000260 28 1f 0c bd 50 8b ca 3a dc c5 77 bd 42 e6 6d 3d
       -0.0342094 0.0015452895 -0.060491428 0.05808092
000270 4f 75 05 3d 80 98 1e 3d 3a a7 c9 bc fb 51 57 3d
       0.032582577 0.038719654 -0.024615873 0.052568417
000280 b2 e3 92 3b 51 ef 22 bd 3f e0 41 bd 56 e1 21 bd
       0.00448271 -0.03977901 -0.047333 -0.039521538
000290 71 64 0c bd 01 1e 84 3b 67 d1 fd 3c 3b ed 66 3c
       -0.034275476 0.004031897 0.03098364 0.014094646
0002a0 06 b9 4e bd c6 1d 15 bc 9a f0 f6 bc 70 65 6f bd
       -0.05046942 -0.009101337 -0.030144025 -0.058446348
0002b0 ce 1b 53 3c d9 e1 c4 bd 61 dd 58 bd 5c 86 e4 bc
       0.012885047 -0.096133895 -0.0529455 -0.027896099
0002c0 a1 4b 22 bd 5e f1 f3 bc c0 41 cb bc e1 cb 81 bd
       -0.039622907 -0.029778179 -0.024811625 -0.06337715
0002d0 d2 ca 93 bb 90 6c 0b bd 42 77 f5 b9 31 82 02 3c
       -0.004510262 -0.03403908 -0.00046818895 0.00796561
0002e0 bb f9 84 bd 3e 9f 1f 3d cd 18 2f bd 48 20 fc bc
       -0.06492945 0.038970225 -0.04274826 -0.030777112
0002f0 4e a9 52 bd 8a a6 db 3c 4e 43 18 3d 44 d7 74 bd
       -0.051430993 0.02681281 0.03717356 -0.059775606
000300 75 69 6a 3d d3 52 df 3c c5 3b 4a bd 9e 6c fc bb
       0.057229478 0.027261173 -0.049373407 -0.007703378
000310 b0 6b 5c bc 59 e9 93 bd 86 30 2c bb 75 4b ef bc
       -0.013453409 -0.07222242 -0.002627404 -0.029210785
000320 ca 37 a2 bd b7 7b ee bc 6b ff 9f bc 10 39 87 bd
       -0.07920797 -0.029111726 -0.019530972 -0.06602681
000330 b5 92 69 bc f2 4b 61 bd b6 4b be bc f6 06 24 bc
       -0.014256169 -0.055004068 -0.023229461 -0.010011425
000340 f1 8b 46 bd 83 ce 56 bd b5 90 6b bd e1 9f 2a bd
       -0.048473302 -0.05244304 -0.05751105 -0.04165638
000350 16 6b 73 bc 50 60 1f bd 40 cd 38 3d a3 ad 6b bd
       -0.014857074 -0.03891021 0.045117617 -0.05753864
000360 45 48 81 bd a2 16 76 bd 75 dc 41 3d a6 6f dc bc
       -0.063126124 -0.060080178 0.047329385 -0.026908707
000370 d5 b4 8b bc 07 92 9f 3c f1 c8 35 bd a1 30 ce 3b
       -0.017054 0.019478811 -0.044381086 0.006292418
000380 ac 98 88 bd 07 d5 94 bd 12 f2 d8 bc 55 d9 6a 3c
       -0.06669745 -0.07267194 -0.026482616 0.014334043
000390 af 00 96 bd db 94 c5 3c 70 99 e5 3c 3f 76 2e bd
       -0.07324349 0.024118831 0.028027266 -0.042593237
0003a0 69 57 8c bc 15 3c 34 bc aa be d1 3c 39 84 1d bd
       -0.017131524 -0.011000653 0.025603611 -0.038456175
0003b0 f8 d8 60 bd 6b 76 eb bc 53 b1 3a 3d 0b 75 87 bd
       -0.054894418 -0.02874299 0.045579266 -0.06614121
0003c0 30 d6 38 bd cb 2b 24 bd ea 7d 7c bc 41 9e 31 bd
       -0.04512614 -0.040080827 -0.01541088 -0.043363813
0003d0 0e ff 05 bd dc 27 59 bd 48 16 48 3b 9a 94 bf bc
       -0.032713942 -0.05301653 0.0030530859 -0.023386288
0003e0 a8 4e 07 3c 61 a1 00 bc 8a 58 77 3c 78 a1 71 bd
       0.008258499 -0.007850976 0.015096793 -0.05899188
0003f0 f1 63 d7 3c f9 c5 76 bc e7 45 0e 3d 6c c6 59 3d
       0.026292773 -0.015061849 0.034734633 0.053167745

fc2.bias f4 [256]
000000 ca df 68 bd 37 21 69 3d 02 91 ff 3d 16 ac a4 be
       -0.056854047 0.05691644 0.1247883 -0.3216254
000010 66 0e f0 3c 3d b5 dc bb e4 24 95 bd 37 89 c7 bd
       0.02930374 -0.0067354725 -0.07282427 -0.097429685
000020 d0 2c 8f bd 27 5d 22 3e 03 b1 0e 3d 5f bd 68 3d
       -0.06990969 0.15855847 0.03483678 0.056821223
000030 09 ad bf 3d 79 23 1c 3d 8c e7 25 be bd 67 28 bd
       0.09359176 0.038119767 -0.1620161 -0.041114558
000040 a4 ca 8a 3e 83 c3 4c be 5b 18 1b bd db d4 8e be
       0.27107728 -0.19996457 -0.037865024 -0.2789677
000050 4c 97 f3 3d d1 17 4f bd cd 74 69 bc 28 0f 30 bd
       0.11894092 -0.050559822 -0.014249039 -0.042983204
000060 34 46 f6 bd 4e a5 0c be 41 c5 0a 3e 73 df 17 bc
       -0.12025109 -0.13734934 0.13551809 -0.009269583
000070 2a fe ea 3d 7d 88 ce 3c af 64 d3 3e f6 60 9c 3d
       0.11474259 0.025211567 0.41287753 0.07635681
000080 41 a4 04 3d ab 28 5f be c0 e3 39 bc d3 ee be bc
       0.032383207 -0.21792857 -0.011345804 -0.02330724
000090 4e 5e 86 3e 3c c3 22 be 23 fb 56 bd 0c e1 94 bd
       0.26243824 -0.15894789 -0.052485596 -0.07269487
0000a0 af 30 70 be a7 72 e7 ba d5 e9 2a be aa 81 3c bd
       -0.23456071 -0.001765807 -0.16690762 -0.046022095
0000b0 a0 4b 81 bd 16 1e fe bd 63 ff aa bd 8e bb 10 3e
       -0.063132524 -0.12408082 -0.083494924 0.14134046
0000c0 fa 19 ce bd 8c 46 5a be b1 b2 14 3e 1e bd 96 be
       -0.100635484 -0.21315974 0.1452129 -0.2944116
0000d0 d2 0e a7 3d f0 6e c0 bc 7f 34 54 3e 09 85 ef bd
       0.081571236 -0.0234904 0.2072315 -0.11695296
0000e0 ab bd ec bd cf 7a 46 bd 94 59 8d bd 19 1f 41 3c
       -0.11559614 -0.048456963 -0.06901851 0.011787199
0000f0 57 01 07 bb 10 8c 07 39 e4 a9 00 3e 44 a6 58 3e
       -0.0020600164 0.0001292678 0.12564808 0.21157175
000100 bb 90 d9 3d 16 75 83 be 0d f1 a6 3c f9 1c da 3d
       0.10623308 -0.25675267 0.020378614 0.10650057
000110 dc 1b 5d 3e b4 e5 ba be 2d a5 89 3d db ed 7b bd
       0.21592659 -0.36503375 0.06720958 -0.061506134
000120 d2 38 36 3d 5b 02 17 3b 18 7b 5b be 54 49 1a 3e
       0.04448778 0.0023042175 -0.21433675 0.15067035
000130 4c bf 76 bd d8 98 94 bd 34 92 f8 3d 11 52 1f 3e
       -0.06024103 -0.07255715 0.12137261 0.1555865
000140 6b 18 06 3d 6c e5 3f bd 82 4f a5 bd 12 73 71 bc
       0.03273813 -0.046849653 -0.080718055 -0.014736908
000150 9b 3a 41 3e 72 08 fa bc f6 88 ea 3d c4 ea 9d bd
       0.18870012 -0.030521605 0.114519045 -0.077107936
000160 5e c7 35 bd 31 f8 40 be cd 01 85 3d 8a 89 22 bd
       -0.044379584 -0.18844678 0.06494484 -0.03968195
000170 0e d5 27 3e 6e c0 9d bd 19 19 83 3c d6 b4 b2 bd
       0.16389868 -0.07702719 0.016003178 -0.08725898
000180 d5 e2 b9 bd 32 5f a0 bd e8 74 78 bb 89 e3 92 3d
       -0.09076468 -0.07830657 -0.0037911478 0.07172305
000190 b2 19 11 bd 99 d2 9d bd 47 4c 77 bd cb f0 09 3e
       -0.035424896 -0.07706184 -0.060375478 0.13470761
0001a0 14 c7 3f bd 71 ef a8 bd 1e 8b fd bd 5c 1e 38 3d
       -0.046820715 -0.08248795 -0.1238005 0.044950828
0001b0 fb fe 78 bd 76 22 22 be 82 5a 16 be 97 af ff bd
       -0.060790043 -0.15833458 -0.14682963 -0.12484663
0001c0 c8 bd 66 be dc 59 c1 bc 8a a3 3b be 1d c1 b2 bd
       -0.22533333 -0.023602419 -0.18324104 -0.0872824
0001d0 ae 19 18 bf b7 a2 ad 3d e5 c2 8c bd c9 be d3 3b
       -0.59414184 0.08478301 -0.06873111 0.0064619523
0001e0 fc 29 36 bd f8 c9 e2 3e 09 5f 00 3e 36 de 4e 3a
       -0.044473633 0.44294715 0.12536253 0.00078913884
0001f0 19 03 66 bc 71 81 23 bd 95 65 5b bd c3 74 03 be
       -0.0140388245 -0.039918367 -0.053563673 -0.1283751
000200 8c 56 47 be 5b 29 87 bd 30 03 46 be 77 75 53 bd
       -0.19466609 -0.06599685 -0.19337153 -0.051625695
000210 b6 32 57 3e 93 73 2d b9 0f b3 a5 3d 70 b0 0f be
       0.21015438 -0.0001654162 0.08090793 -0.1403215
000220 41 ab 8a bc 09 08 1d 3e 09 d1 a4 bc c8 2e 92 be
       -0.016927363 0.15335096 -0.020119207 -0.28551316
000230 c1 9e 4b bd a2 c6 99 be 46 b4 93 be 58 05 26 bd
       -0.049711946 -0.30034357 -0.28848475 -0.04053244
000240 10 f0 33 3d 3d 45 50 bd 64 1a 85 bd 9d 21 a0 be
       0.043930113 -0.05084728 -0.06499174 -0.31275645
000250 b6 bd 72 be cc c4 ba 3d 5c fb fb bd c3 cb 73 3e
       -0.23705181 0.09119567 -0.12303802 0.23808198
000260 ef c1 52 bc 82 4e 78 bd f5 98 f9 3d 90 4a 55 3e
       -0.01286362 -0.060621746 0.12187377 0.20829225
000270 46 5d ca bc cf f3 9f 3b a2 22 45 bd a9 f9 18 be
       -0.02470268 0.004881359 -0.04812873 -0.14938988
000280 c1 d2 2b bd e5 b1 92 bc 2c a6 33 ba 15 62 40 be
       -0.041949037 -0.017907092 -0.00068530696 -0.18787415
000290 67 0a f4 bc 55 81 89 bd 4a 9e bf ba d3 00 04 be
       -0.029790116 -0.06714121 -0.0014619317 -0.1289094
0002a0 a1 05 48 bd 7f 1c 7c be 11 78 6a be 57 b8 cb 3e
       -0.048833493 -0.24620245 -0.22897364 0.39789078
0002b0 af b2 d8 bc e3 42 53 be 91 93 ba bd 64 25 f7 3e
       -0.02645239 -0.20630984 -0.09110177 0.48270714
0002c0 29 16 42 be ed 2a 18 be c0 6e f8 bc 03 15 3c 3e
       -0.18953766 -0.14860125 -0.030326247 0.1836739
0002d0 d8 b0 5e bd b8 73 68 3c d5 bf 7f 3e 62 1c 78 be
       -0.05436787 0.014187746 0.24975522 -0.24229577
0002e0 b4 b9 b0 bd c3 04 37 bd 6e 76 4b bd be 1c 11 3e
       -0.0862917 -0.044682276 -0.04967349 0.1417112
0002f0 25 f9 4e be 7b 45 4c bd 49 7b 9e be 7d c4 75 bd
       -0.20212229 -0.04987095 -0.30953434 -0.06000184
000300 9c 16 cc 3c d6 7c 08 3e 17 9c 5a bc e7 3e cf bd
       0.024913125 0.13328871 -0.013342879 -0.101194195
000310 9e c9 29 bd 8f f6 19 be 83 c2 9c bb 1a 24 77 3e
       -0.041452043 -0.15035461 -0.00478393 0.24134865
000320 1a bc 0a 3c ee 72 ed bd ab da 8c 3e 11 95 2c 3e
       0.0084676985 -0.11594187 0.2751058 0.1685374
000330 bc c1 68 be ad cf 61 bd bb cd 79 3e 58 9a b6 3d
       -0.22730154 -0.055129696 0.24394886 0.089161575
000340 95 c3 39 3c d0 4a a6 be 2c e9 d3 bd 68 e6 86 3d
       0.011338134 -0.32478952 -0.103472084 0.06586915
000350 55 c9 c6 bc 08 85 81 3e fd ee 93 bd 5b 97 40 3e
       -0.024265924 0.25296807 -0.07223318 0.18807738
000360 bc 71 c3 bc 13 56 96 3e 5b 78 9c 3c 63 77 24 3d
       -0.023857944 0.29362544 0.019100359 0.04015292
000370 f1 60 83 bb 32 8c 29 bd 94 fb 25 bd 90 7f 0e 3e
       -0.004009359 -0.041393466 -0.040523127 0.13915849
000380 40 e2 5f 3b 13 6b 41 be bc b7 6b 3e 19 de 10 bb
       0.0034161955 -0.18888502 0.23019308 -0.0022105037
000390 e1 75 fe bd 83 47 2c bc 9e 61 a2 bd b7 2c 96 bd
       -0.12424827 -0.010515097 -0.07928775 -0.073327474
0003a0 1b 1b 31 bf e9 a4 81 bd 4e 19 6b bc e5 da 1f 3e
       -0.69181985 -0.06330282 -0.014349295 0.15610845
0003b0 2f 8b 23 be 72 37 6a 3c 01 ae 8a bd 7c 78 ee 3e
       -0.15971063 0.014295446 -0.0677147 0.46576297
0003c0 fa 9e ec bd d3 1e 5c bd 30 bf 8a bd 1f 0b 19 be
       -0.1155376 -0.053740334 -0.06774747 -0.14945649
0003d0 74 a8 e7 3d cb 1e 5b bc 9e c0 de 3d de b3 21 3e
       0.11311427 -0.013374041 0.108765826 0.1579127
0003e0 40 1b 82 3e 5a a6 62 be 87 2c aa bc 9c 5f 83 bd
       0.25411415 -0.2213377 -0.020773185 -0.064147204
0003f0 b4 52 46 bd 6d c7 1d be a7 1d dd bc ab 8a a0 3d
       -0.048418716 -0.15408106 -0.026991678 0.07838949

fc3.weight f4 [128, 256]
000000 1d 16 a3 bd 17 af 7a ba 6a 48 ed 3a 84 74 c2 bd
       -0.07963202 -0.00095628336 0.0018103246 -0.0949488
000010 2c 26 f7 3c 85 7c 9a bd c2 ec 29 39 e9 7a b2 bc
       0.030169569 -0.075432815 0.00016205295 -0.021787124
000020 27 9b b2 3c ba c8 2b 3d 32 98 8f bd 8d d4 91 bd
       0.021802498 0.041939475 -0.07011451 -0.07120619
000030 ec bb 62 bd 38 82 2a 3c fc e3 0b 3d eb 27 a2 3c
       -0.055354998 0.010407023 0.03415297 0.019794425
000040 3d 90 bd bd fc f7 03 be 23 11 bf bb 08 90 63 bc
       -0.09256027 -0.12887567 -0.0058309003 -0.01388932
000050 ec 96 38 3d 5e 54 0d 3d d5 f8 e6 bc 59 18 8d 3d
       0.045065805 0.034504287 -0.028194824 0.068894096
000060 70 22 11 3d e4 a0 1c bd 05 0c 83 bc 53 54 a3 bd
       0.035433233 -0.038239375 -0.015996942 -0.07975068
000070 ec 6f cd bd 90 53 56 3c fa 4f 80 bd 75 84 99 bd
       -0.10031113 0.013081446 -0.06265254 -0.07495967
000080 7a d2 a4 3c 01 2f e4 bd a2 e7 94 bc a7 39 47 3c
       0.020119894 -0.11141778 -0.018176857 0.0121597415
000090 88 20 66 bd db 42 cc bd 38 61 63 bd e2 5d be bd
       -0.056183368 -0.09973689 -0.055512637 -0.092952505
0000a0 63 10 8a 3d cd 72 55 3d 31 57 7f 3d 69 dd 66 bd
       0.06741407 0.052111436 0.06233901 -0.056363497
0000b0 4d ff 29 bd dd 3e c2 bc 74 e0 27 bd 19 4f d0 3c
       -0.04150324 -0.023711616 -0.04098554 0.025428342
0000c0 db bf 66 bd ce 43 a1 bc bf f7 57 3d fb 8c 78 3d
       -0.05633531 -0.019685652 0.052726503 0.060681324
0000d0 44 9a 3b bd c7 6a fa 3a ca 8f cd bd 8d d6 49 3d
       -0.045801416 0.0019105308 -0.10037191 0.049276877
0000e0 2d 85 87 3d 38 91 82 bd 8d 40 61 bb 0c fd 1a ba
       0.06617198 -0.063753545 -0.003437075 -0.0005912341
0000f0 1b 91 9b bd 0b 8e 01 bd ec 3a 1b bd 6c 1a b9 bd
       -0.07596036 -0.031629603 -0.03789799 -0.09038243
000100 d0 32 07 bd 17 50 61 3d 1a 99 28 bd c7 73 99 bd
       -0.033007443 0.05500802 -0.041161634 -0.07492786
000110 ab dd e0 bb 09 e4 71 bd d8 08 be bd 84 78 c5 bd
       -0.0068623624 -0.059055362 -0.092790306 -0.09642127
000120 ab 32 8a bd c3 18 48 3d 94 b4 a4 3d 59 15 ad bc
       -0.067479454 0.04885174 0.08042255 -0.021128343
000130 3d d8 a6 b9 ed e3 79 3d ce 10 00 bd 52 18 a3 bd
       -0.00031823097 0.061008383 -0.031266026 -0.07963623
000140 01 c4 de bc b3 6a 71 3d d5 9b 0a bd 68 1e f7 3b
       -0.027193071 0.058939647 -0.03384002 0.0075414665
000150 9b 4a a4 bd 7f ae f7 bc 9a eb 29 bd 37 c4 81 bd
       -0.08022042 -0.030234573 -0.041484453 -0.06336253
000160 47 b3 49 3d 83 74 b4 bd 88 f7 c4 3b 18 b6 3f bb
       0.049243238 -0.08811285 0.0060109533 -0.0029252823
000170 05 e1 47 bd c9 31 2c bd 15 68 9f 3d 5f 8a 8b bd
       -0.04879858 -0.042039666 0.07783524 -0.068135016
000180 ec a0 31 bd 7c 8c 76 bd 4a 33 45 bd fd bf 3d 3d
       -0.043366358 -0.06019257 -0.048144616 0.046325672
000190 d3 ac 6c bd 5e 08 01 3d 42 5c d6 3b 9e 5a 42 bd
       -0.057782006 0.03150212 0.0065417597 -0.0474497
0001a0 a9 4f 13 bd f4 4d eb 3c b9 5c 79 bd 79 f6 ce bd
       -0.03596464 0.028723694 -0.060879443 -0.10105605
0001b0 81 8c c7 3b 31 ce 04 bd e5 f4 25 bd ba 55 83 bc
       0.0060897474 -0.032423202 -0.040516753 -0.016032089
0001c0 35 9f 46 bd 80 83 8d bd 34 a6 43 bd 0b 3c a0 bd
       -0.048491675 -0.06909847 -0.047765926 -0.07823952
0001d0 85 11 26 be 3f 00 fb 3a 0d ca 89 bd f3 95 92 3c
       -0.1621762 0.0019149854 -0.06727991 0.017893767
0001e0 d0 29 2d 3d d4 d9 9e bd 67 c1 7f 3d dc 8a 6e bd
       0.042276204 -0.07756391 0.062440302 -0.058237895
0001f0 f8 5f aa bd d1 36 4c 3d 81 33 a2 3d 35 d7 ab 3c
       -0.08319086 0.049856964 0.0791998 0.020976642
000200 af 28 5f bd 9e f7 28 3d a7 93 65 3b e9 61 a5 bd
       -0.05448216 0.04125177 0.0035030635 -0.080753155
000210 e1 4c 7a bc 0f 36 56 bd b7 56 d3 3c d3 79 37 bc
       -0.015277118 -0.052297648 0.025798185 -0.011198479
000220 11 90 3c bd 67 11 7d 3d 59 c0 83 bd 50 bb 71 bd
       -0.04603583 0.061784174 -0.06433172 -0.059016526
000230 86 85 81 bd 02 3d 03 be 22 89 26 be 6f df 19 3b
       -0.06324296 -0.12816241 -0.1626325 0.0023479124
000240 9a b8 99 3c 38 c2 89 3d a1 75 29 3d 17 f1 fb bc
       0.018764783 0.067264974 0.041371945 -0.030754609
000250 44 17 a7 bb ed 9e 0b bd 6b fc e6 3c 53 c3 d0 3b
       -0.005099209 -0.03408711 0.028196534 0.0063709407
000260 f7 db 0b 3b a4 24 4d bd 1c d6 f4 bc 6f 07 a9 3c
       0.0021340826 -0.05008377 -0.029887252 0.020633427
000270 f2 fc 9d bd ef e1 55 bc 14 b9 50 bb 2e 32 c9 bd
       -0.07714261 -0.013054355 -0.0031848596 -0.09824024
000280 0b f1 fd bc 09 0a 21 3d a8 f2 77 bc 43 dc 02 3d
       -0.030998727 0.03931621 -0.015133537 0.03194834
000290 80 de 30 3d 25 f8 ae bc 82 f5 78 3d e0 a5 f1 3c
       0.043180943 -0.021358559 0.06078101 0.02949804
0002a0 97 86 77 bd 88 0f 30 bd d6 8c 9f bd 9c 85 7c bd
       -0.06043109 -0.04298356 -0.07790534 -0.061650857
0002b0 67 44 16 3c d2 b4 aa 3d 97 81 94 bd f8 69 8a bd
       0.009171582 0.0833527 -0.0725128 -0.06758493
0002c0 1c 20 b1 bc a6 de cd bd 89 90 11 3d 1a 0b 7d bd
       -0.021621756 -0.100522324 0.03553823 -0.061778165
0002d0 23 3a dc 3c ee 7b da bc 2e ae ec 3b 9a 4b 05 bd
       0.02688319 -0.026670422 0.0072229123 -0.032542802
0002e0 7c f1 6c 3c e7 23 8c bc 0d c8 6d 3d 92 89 d7 bc
       0.014461871 -0.017106963 0.05805211 -0.026310716
0002f0 25 04 92 3d 37 e9 43 3d 55 7b 1e 3d 39 0a 06 bc
       0.07129697 0.047829833 0.038691837 -0.008181148
000300 8c 10 d2 bc fb 74 d7 bd d4 93 65 3b 06 ff 0b bc
       -0.025642656 -0.10520359 0.003503074 -0.008544689
000310 bf 48 37 bd 8c 95 92 bd d1 31 1f bc 12 34 18 3c
       -0.04474711 -0.0715743 -0.009716467 0.009289758
000320 90 80 1d bd 5e f8 ca 3c a9 5a c0 bd 31 c4 be 3c
       -0.038452685 0.024776634 -0.09392292 0.02328691
000330 5b ca bc bc cd 96 44 3d e0 29 b0 bd a6 54 58 3d
       -0.02304571 0.047995377 -0.08601737 0.052815102
000340 39 49 20 bd 89 5c bf 3c bf 03 1e bd 3f 47 9f 3a
       -0.03913233 0.023359554 -0.03857779 0.001215197
000350 9a 92 68 3c 7a 92 46 bb a1 1f 8d 3c b1 8d 28 ba
       0.014195109 -0.003029971 0.017226996 -0.0006429805
000360 49 bc a4 bd b4 77 33 bd 61 82 34 bd da 96 a2 bd
       -0.08043725 -0.04381533 -0.04406965 -0.07938929
000370 f9 f5 fa bb 40 75 0c 3d e5 2b 9e bd 9e ef 86 bd
       -0.0076587168 0.034291506 -0.07723216 -0.06588672
000380 b9 36 a0 3d b2 fd 5d bd 2d f8 12 be c8 c8 cf ba
       0.078229375 -0.05419702 -0.14352484 -0.0015852684
000390 85 d9 9b bd af f9 76 3d 9f a8 9e bd 53 ad be bb
       -0.07609848 0.06029671 -0.07747006 -0.0058190017
0003a0 06 dc 12 3d 12 7f 08 bd 5b 97 04 bd 71 d3 63 bd
       0.035854362 -0.03332431 -0.032370906 -0.055621568
0003b0 5c 44 1d 3d f1 e9 8a 3c 10 12 9d bd 70 f1 d9 bd
       0.03839527 0.016957255 -0.07669461 -0.10641754
0003c0 fa a1 4e bd be ca 5a bd 49 40 08 3c 0b 8e d6 bc
       -0.05044744 -0.053416006 0.008316108 -0.026190778
0003d0 07 1b c7 bc e9 15 8d bd 3b f0 24 be 20 9e b0 bc
       -0.02430488 -0.06888945 -0.16107266 -0.021559775
0003e0 8e c9 2e bd 93 12 0c bd 4a 9a a2 3d 00 fb e7 3a
       -0.042672686 -0.0341974 0.079395846 0.0017698705
0003f0 65 96 02 3d 2a 3c 8c 3c bd 72 8c 3d 6c 55 f1 bc
       0.03188171 0.017118532 0.06857822 -0.029459678

fc3.bias f4 [128]
000000 bc 15 1e be 11 ef 0b be 3e b4 f3 bd dd 85 92 be
       -0.15437979 -0.13665415 -0.11899613 -0.28617755
000010 6c ee 04 be fe b4 f6 bd 26 ef 4c be 44 d7 6f bf
       -0.12981576 -0.1204624 -0.20013103 -0.93687844
000020 b0 56 3a 3e 17 4c 1c 3f 13 ac 14 3f 58 6f 5e be
       0.18197131 0.61053604 0.58075064 -0.21722162
000030 a6 f5 1d bd 73 f1 16 bd 69 a2 1b be 5f ea 88 be
       -0.038564347 -0.036851358 -0.15198673 -0.2674131
000040 14 ab 5f be 5a 47 25 be e4 8d 19 be fe 53 af bc
       -0.21842605 -0.161405 -0.14995533 -0.021402355
000050 a3 c5 88 be 3e fb c7 3e ad c8 06 be 68 f6 42 be
       -0.26713285 0.3905887 -0.13162489 -0.19039309
000060 ad ca 2c be f4 3f 5c be 2c 02 4e be 1b 6b 7a be
       -0.1687419 -0.21508771 -0.20118016 -0.2445492
000070 16 61 ae bd 12 d6 18 3f 51 dd c6 3e 56 96 37 be
       -0.085146114 0.59701645 0.38840726 -0.17928442
000080 27 5c 87 bd b1 73 29 3d ee 37 a4 3e e1 50 bb 3d
       -0.066093735 0.041370098 0.3207392 0.09146286
000090 b7 37 42 be bd bf ed bd df 7f 8f be 94 8e 27 3e
       -0.18966566 -0.11608837 -0.28027245 0.16362983
0000a0 7a fd a9 be 2c af 6c 3f e1 c1 21 be 51 96 f0 3e
       -0.332012 0.9245479 -0.15796615 0.46989682
0000b0 f0 43 47 be 4d 89 1e 3e 64 37 01 bd cb 96 45 be
       -0.1945951 0.15482064 -0.031546965 -0.19295804
0000c0 4d d8 67 3e 45 79 4f 3f 47 5e 4f be 2b e5 69 be
       0.22641106 0.8104442 -0.20250808 -0.22841327
0000d0 a4 95 08 3e ed 83 b9 3b 4f b3 f6 bd 52 00 87 be
       0.13338333 0.0056614787 -0.12045919 -0.26367432
0000e0 96 fc 3a be ed 52 ac 3e 11 50 7c be f8 a8 32 be
       -0.18260416 0.33657017 -0.24639918 -0.17447269
0000f0 d5 f6 21 be bb 04 63 be 47 20 1b be 45 49 8d 3d
       -0.15816815 -0.22169773 -0.15149032 0.06898741
000100 13 c1 5e 3f 2a f8 af 3e 7e af 99 3e e1 b6 18 be
       0.8701336 0.34369022 0.30016702 -0.14913513
000110 41 84 48 be fb bb 8c be 90 98 e3 3e b7 ec 1c 3e
       -0.19581701 -0.27487168 0.44452333 0.15324675
000120 20 1a 4c be 46 9e ba bc 84 b6 3c be f3 3e e5 3e
       -0.19931841 -0.022780549 -0.18428999 0.4477459
000130 d3 ec 5e be a0 53 24 be 5a ff ec be 8f 01 45 be
       -0.21770029 -0.16047525 -0.46288568 -0.19238876
000140 7a 2e 0f be 66 3e 40 be 7b a9 3e be 06 cc 41 be
       -0.13982573 -0.18773803 -0.18619339 -0.18925485
000150 02 fc 70 be fe d2 71 be d9 eb 4e be 3f 47 71 be
       -0.23533633 -0.23615643 -0.20207156 -0.23562334
000160 0e b7 83 bc e8 59 8c be be b0 ed bd 92 1f ca bd
       -0.016078498 -0.27412343 -0.116059765 -0.09869303
000170 23 08 da 3e 93 87 8c be 30 9b 37 be 00 d0 63 3d
       0.42584333 -0.27447185 -0.17930293 0.055618286
000180 b7 7a 8e be f2 82 82 be e0 6f 14 be 29 ef 53 be
       -0.27828 -0.25490528 -0.14495802 -0.20696701
000190 74 3f 28 be fc 9f 7f 3d 04 08 dd bd 45 21 02 3f
       -0.16430455 0.062408432 -0.107925445 0.50832015
0001a0 e8 ad 7e be 6f 89 26 be e9 43 b5 3e 3e 1b dc be
       -0.24871027 -0.16263364 0.35403374 -0.42989534
0001b0 cf 35 8f be 84 c8 29 be 14 32 59 be 25 0a a1 be
       -0.2797074 -0.16580397 -0.2121051 -0.31453052
0001c0 d1 b5 83 be 6a b9 33 be c4 2c 4c be a9 68 0e be
       -0.25724652 -0.17551199 -0.19938952 -0.13907112
0001d0 1a 34 a4 3d 4f 74 0d be 6f 4a 6d be 13 1b 36 be
       0.0801775 -0.138139 -0.23172925 -0.17783765
0001e0 3b cf dd bb 32 b0 4c be 31 91 44 3e ff a1 9a bd
       -0.0067690886 -0.19989088 0.19196011 -0.075504296
0001f0 f6 9a 38 be c0 73 13 be 40 c6 65 be 2a c3 a7 be
       -0.18027863 -0.14399624 -0.22438908 -0.32766086

fc4.weight f4 [1, 128]
000000 20 f5 84 3c 10 4e 17 bd e6 4d 8c bc a5 aa d7 3c
       0.016230166 -0.03693968 -0.017126989 0.026326487
000010 bd 72 99 bb 9f 62 9e bb 23 29 85 bd 75 97 37 3d
       -0.0046828673 -0.004833534 -0.06501987 0.044822175
000020 bd ae d9 bc a3 eb 38 3c ca 0a b1 bc b3 8e 00 3d
       -0.02657258 0.011286649 -0.02161159 0.03138609
000030 55 24 39 bc e6 2b 6a bc d5 20 2f 3d 7e 08 b2 bc
       -0.011300166 -0.014292693 0.04275592 -0.021732565
000040 e8 ad b1 3a 01 70 13 3d 70 d9 4d bc 5e 2a 79 3c
       0.0013555856 0.035995487 -0.012564048 0.015207855
000050 bd 1b b5 3c 10 fe 1f bd 60 2c f1 3a 76 82 0b 3c
       0.022107953 -0.039060652 0.0018400066 0.008514991
000060 48 be e5 3c dc d3 78 ba e7 a3 7f bc 4a 22 ae 3c
       0.028044835 -0.0009492019 -0.015603042 0.021256585
000070 5f 7f 5c 3d 04 39 a8 bc 73 50 bd bc 34 6a 98 3c
       0.053832408 -0.020535 -0.02310965 0.01860533
000080 22 64 95 bc 76 5e 1e 3d d0 a2 04 3d 93 b1 92 3c
       -0.018236224 0.038664304 0.032381833 0.01790694
000090 7e ab 93 bc e6 e5 a2 3c 2f 5e 36 3c d2 a7 a2 3d
       -0.01802611 0.019885015 0.011130854 0.079421654
0000a0 15 40 cb bc 5f 81 bc 3c 92 27 b3 3c 66 f2 0a bd
       -0.02481083 0.023010908 0.021869455 -0.033922575
0000b0 41 fd d5 3c 5f 64 59 3d 63 f7 32 3c 9e 52 c4 3c
       0.026121737 0.053074237 0.010923239 0.023965176
0000c0 12 a3 2f 3d 82 4a 8d 3c 00 da ae bc c3 0b dd bb
       0.042880125 0.017247442 -0.021344185 -0.006745787
0000d0 38 62 18 3d 77 56 9a 3c 60 f6 86 3b 32 69 1d 3d
       0.037203044 0.018840058 0.0041187257 0.0384304
0000e0 f4 5d e6 3a 26 20 ad bc 2d a0 d9 3c 67 51 fe 3b
       0.0017575608 -0.021133494 0.026565636 0.0077611688
0000f0 8a 5e e9 bc d7 f2 0f 3b 72 c6 5a 3a 5f 67 fa bc
       -0.028487463 0.0021964812 0.00083456107 -0.03056687
000100 f9 62 27 bd fb 08 09 bd a8 f7 26 3d e2 89 21 3c
       -0.040865872 -0.03345583 0.040763527 0.009859534
000110 49 c0 0c bd 93 b5 fd 3b 2b 8c 13 3d 90 87 01 3d
       -0.034363065 0.0077425926 0.036022346 0.031623423
000120 bd 47 29 3b 13 fd a2 3c 49 54 a2 3c 79 3d 0f bc
       0.0025830113 0.019896066 0.01981558 -0.008742684
000130 4c e3 1b 3b 37 c9 49 3c 68 88 93 3c b9 1c 34 3b
       0.0023786603 0.01231604 0.01800938 0.002748294
000140 d9 e9 23 3c d1 6e f7 3c f8 ed df 3b e1 f8 0e 3c
       0.010004484 0.030204209 0.006833788 0.00872633
000150 00 1c 8e 3c d4 0b 9d 3b b2 e7 5c 3c c4 31 c1 3b
       0.017347336 0.00479267 0.013482975 0.005895825
000160 a7 77 e6 bc b9 34 16 bd b3 6a 85 3a d2 6d 20 bd
       -0.028133227 -0.036671374 0.0010178894 -0.039167233
000170 06 e6 5f bd 43 f2 38 3c 7c 78 3b bc a1 0c 05 bd
       -0.054662727 0.011288228 -0.0114423 -0.032482747
000180 d9 0d 8c 3c 05 b7 22 3c ba a6 63 3b 89 57 e4 3b
       0.017096447 0.009931331 0.0034736828 0.006968443
000190 bc 94 dc 3c c0 1b 6d bc 9b 47 f0 bc 37 d9 2d bd
       0.02692639 -0.014471948 -0.02933102 -0.04244348
0001a0 c8 e1 23 bc 88 f1 10 3d 73 0d 84 3c 19 25 1e 3d
       -0.010002561 0.035386592 0.016119694 0.038609598
0001b0 07 22 c5 3c bc fc fa bb 4f fc 51 3b 46 cf 3a 3d
       0.024064077 -0.007659523 0.0032041257 0.045607828
0001c0 68 d9 86 bc 76 1d 73 3c 02 34 c9 bb 17 57 7d 3b
       -0.01646109 0.014838567 -0.006140233 0.0038656646
0001d0 3d a1 c9 3d 59 6d da 3c 84 11 b4 3c fc d3 78 b9
       0.09845207 0.02666347 0.021981008 -0.00023730093
0001e0 6b 22 85 3c 3f 12 f2 bb 69 76 3b 3d 1d d7 79 3c
       0.016251763 -0.007387429 0.04576722 0.015249041
0001f0 69 26 14 bc e5 03 7f 3d 05 70 bf bc 6b 0b 88 bd
       -0.009042361 0.062259573 -0.023368845 -0.06642803
