maddpg/models/actor_params_0.pth (torch_old, 142813 bytes, 6 tensors)

fc1.weight f4 [200, 24]
0	0x3c0df933	0.008665371
1	0xbe878652	-0.26469666
2	0xbdba42ff	-0.0909481
3	0x3ceebf31	0.029143902
4	0x3d8f8264	0.07007292
5	0xbda8df51	-0.08245719
6	0xbd0334b4	-0.032032683
7	0xbd83b353	-0.06430688
8	0x3c6404d6	0.013917169
9	0xbe7e4d27	-0.24834119
10	0xbd11afff	-0.035568234
11	0x3ca79d31	0.020460697
12	0x3c4fc2f0	0.012680754
13	0xbd8673ce	-0.06565057
14	0xbcadf79e	-0.021236237
15	0x3d38b6a1	0.045096043
16	0xbe2a1c01	-0.16612245
17	0xbe9bce69	-0.30430916
18	0xbe0e5a5c	-0.13901657
19	0x3d9942f3	0.07483473
20	0xbd386cdb	-0.045025688
21	0xbc4f331e	-0.012646465
22	0xbd446a11	-0.047952715
23	0xbaf42450	-0.0018626545
24	0x3d7c672a	0.061621822
25	0x3e3e1886	0.18564042
26	0xbcb697f4	-0.022289254
27	0x3e164872	0.14676073
28	0xbe25b9f9	-0.16184224
29	0x3e458d9d	0.19292302
30	0x3d27ce09	0.040967975
31	0x3e0144de	0.12623927
32	0x3c450ab2	0.012026476
33	0x3db9340c	0.0904313
34	0xbbdd9d10	-0.006763108
35	0xbcd5d1fd	-0.026101107
36	0xbd044926	-0.032296322
37	0x3e5f81ad	0.21826811
38	0xbc45883c	-0.012056407
39	0xbda24d08	-0.07924849
40	0x3c897ea7	0.016784025
41	0x3e40eebb	0.18841068
42	0x3c261458	0.010136686
43	0x3d4cc208	0.04998973
44	0x3d498823	0.049202096
45	0x3d8db844	0.069199115
46	0xbca30406	-0.01989938
47	0x3cf252a6	0.029580425
48	0xbd72a32e	-0.05923765
49	0xbeb93d8e	-0.36179775
50	0x3d5b770a	0.05358032
51	0xbe55463a	-0.2082757
52	0x3e2f60f4	0.17126828
53	0x3e19c879	0.1501788
54	0x3d8766ff	0.06611442
55	0xbe51b599	-0.2047943
56	0xbde2441a	-0.110481456
57	0xbe38775a	-0.18014279
58	0xbd3cbe14	-0.04607971
59	0x3d9140f7	0.07092469
60	0x3e338d40	0.17534351
61	0x3dfd2ed5	0.12362448
62	0xbd76398d	-0.06011348
63	0xbc99eba1	-0.018789114
64	0xbca88b11	-0.020574125
65	0xbe4b05b9	-0.19826402
66	0xbcd3c6eb	-0.025851687
67	0x3dce5d84	0.100764304
68	0x3e27261a	0.16323128
69	0xbc8b9ae3	-0.01704163
70	0x3db47c52	0.08812775
71	0x3e0adbc4	0.13560396
72	0x3d5decd7	0.054180946
73	0x3d8a7a80	0.06761646
74	0xbd85962c	-0.06522784
75	0xbde0526b	-0.1095322
76	0xbe1da9fd	-0.15396877
77	0xbec0c375	-0.37649122
78	0xbd929467	-0.07157212
79	0x3c84f93b	0.016232124
80	0x3c456322	0.012047561
81	0x3db9be46	0.09069495
82	0x3c058b24	0.0081508495
83	0xbd83b5fa	-0.06431194
84	0xbddc2bdc	-0.10750553
85	0xbecdf797	-0.4022796
86	0xbc83a47d	-0.016069645
87	0xbdec43fe	-0.11536406
88	0x3de72cdf	0.11287855
89	0x3d306457	0.04306444
90	0x38d20c51	0.000100158744
91	0xbd4bdadd	-0.04976927
92	0xbde0fc83	-0.10985663
93	0xbeb5979a	-0.35467225
94	0xbd8e6a4a	-0.06953867
95	0xbdf5eaa2	-0.12007643
96	0x3b8348b3	0.004006469
97	0x3dd7aa56	0.10530536
98	0xbdf93e09	-0.121700354
99	0xbdb98d5d	-0.09060166
100	0x3d43d7c5	0.047813196
101	0x3d91cd2e	0.07119213
102	0xbd264dd2	-0.04060156
103	0x3ba36943	0.0049869134
104	0x3c224a8e	0.009905471
105	0x3e1286f9	0.143093
106	0x3d90c74a	0.07069261
107	0x3d649e28	0.055814892
108	0x3e800997	0.25007316
109	0xbd4e6b7d	-0.050395478
110	0x3b85565e	0.0040691337
111	0x3ce5b710	0.028041393
112	0xbdbbdbfa	-0.091728166
113	0x3dbf1fe6	0.09332256
114	0xbde07f00	-0.10961723
115	0xbd64d7a3	-0.05586971
116	0x3e8c98e2	0.2746039
117	0xbbe3820e	-0.006942994
118	0xbd6b75b9	-0.057485316
119	0x3d254a46	0.040354036
120	0xbcbf3fb6	-0.02334581
121	0xbe05dc50	-0.13072324
122	0x3cf6a73f	0.030109046
123	0xbe254ff3	-0.1614378
124	0x3d1d0133	0.03833122
125	0xbd99764a	-0.07493265
126	0x3b230a61	0.0024878012
127	0xbe8176b6	-0.25285882
128	0x3dcc2dea	0.09969695
129	0x3c4a13c6	0.012333816
130	0x3cc43176	0.023949366
131	0xbcedfb63	-0.029050535
132	0x3cd816b9	0.026378023
133	0xbdae984c	-0.08525142
134	0x3c174bd3	0.0092343865
135	0x3db3ae18	0.0877344
136	0x3d976ade	0.0739343
137	0xbd8b1a3e	-0.06792115
138	0x3d95f756	0.07322566
139	0xbc6c4250	-0.014420107
140	0xbd148363	-0.036258113
141	0xbde1edd1	-0.11031688
142	0xbcdf9edf	-0.027297435
143	0xbcb73e0c	-0.022368453
144	0x3cdc5deb	0.026900252
145	0x3d844137	0.06457751
146	0x3d581658	0.052755684
147	0x3dee9def	0.11651217
148	0x3da63fea	0.081176594
149	0xbd03de76	-0.032194577
150	0xbd764f7f	-0.060134407
151	0x3e1051e8	0.14093745
152	0x3ca4f7bf	0.020137666
153	0x3d88f491	0.06687272
154	0xbd1f2d40	-0.038861513
155	0xbd8c17c2	-0.06840469
156	0x3dd02e00	0.10165024
157	0x3e2942e1	0.16529419
158	0xbdef03ee	-0.116706714
159	0xbd099451	-0.03358871
160	0xbd60bcd3	-0.054867577
161	0x3e06a890	0.13150239
162	0xbdd68b42	-0.1047578
163	0x3dc5ed56	0.09664409
164	0x3e27e7d3	0.16397028
165	0x3e5aeafd	0.21378703
166	0xbd351128	-0.044205815
167	0x3cf61b85	0.03004242
168	0x3dd77671	0.10520638
169	0xbcfe7ee9	-0.031066375
170	0x3cd45012	0.025917087
171	0x3d304faa	0.043044724
172	0xbdab6ab7	-0.083699636
173	0xbc23fe0d	-0.010009301
174	0xbda6fb6f	-0.08153426
175	0x3dbd5dd6	0.092464134
176	0xbd68dcac	-0.056851074
177	0xbd7c4657	-0.06159052
178	0x3d0ca9d3	0.034341644
179	0x3d137852	0.03600342
180	0xbd9232e1	-0.07138611
181	0x3e0cf77b	0.13766281
182	0x3d8eabb0	0.069663405
183	0x3e08ad85	0.13347442
184	0x3b6a7623	0.0035775981
185	0x3c7e1cb1	0.01550977
186	0x3d37fb23	0.044917237
187	0x3e27e596	0.16396174
188	0xbdf4b71b	-0.11948987
189	0x3cb3bd29	0.021940785
190	0xbda4717b	-0.08029457
191	0x3d70216a	0.058625616
192	0xbd35bd46	-0.04436996
193	0xbde5361d	-0.11191962
194	0xbd533eb9	-0.05157349
195	0x3cc882c5	0.024476418
196	0x3d900d25	0.07033757
197	0x3e3d6697	0.18496166
198	0xbd2f9dba	-0.04287503
199	0xbd9167c2	-0.07099868
200	0xbda09ef9	-0.07842822
201	0xbc9554c1	-0.01822889
202	0xbb4d6aa5	-0.0031344083
203	0x3da97951	0.082750924
204	0xbd7096e8	-0.058737665
205	0x3d82db1c	0.06389448
206	0x3d40eef2	0.047102876
207	0x3e0beab2	0.13663748
208	0xbd6dac86	-0.05802586
209	0xbb984961	-0.0046474193
210	0xbc44c64d	-0.012010169
211	0xbdfdc548	-0.12391144
212	0xbdb8f3f1	-0.09030903
213	0x3c538f2d	0.012912554
214	0x3d3e2fdf	0.046432372
215	0xbe4ca7d4	-0.19985896
216	0xbd3c1896	-0.045921884
217	0xbcf1c7cd	-0.029514218
218	0x3b4a2267	0.003084326
219	0xbc834882	-0.016025785
220	0xbe199ebf	-0.15001963
221	0x3df30f3d	0.11868141
222	0x3d371625	0.044698853
223	0xbd13b070	-0.036056936
224	0xbb510ba8	-0.0031897817
225	0xbc8d0dae	-0.017218437
226	0x3cacb8e6	0.02108426
227	0x3db6a7e3	0.089187406
228	0xbd012429	-0.031528626
229	0x3e422340	0.1895876
230	0xbdc1baa0	-0.09459424
231	0x3db951f5	0.09048835
232	0x3c62fbe5	0.013854002
233	0xbc9bc951	-0.019016894
234	0x3ca19026	0.019722056
235	0xbd1d32a0	-0.038378358
236	0x3d9bc522	0.076059595
237	0x3e11c928	0.14236891
238	0xbd371732	-0.044699855
239	0xbdc1a2c3	-0.094548725
240	0xbbbc5709	-0.00574768
241	0xbc274662	-0.010209652
242	0xbda0f1bc	-0.07858607
243	0x3d3c7158	0.04600653
244	0x3d8df3e0	0.06931281
245	0xbd908b84	-0.070578605
246	0xbd97e45e	-0.074166045
247	0x3d9a2545	0.0752664
248	0xbdac12c7	-0.08402019
249	0xbda7cb2f	-0.08193051
250	0x3d24e763	0.04025973
251	0x3de29d05	0.11065105
252	0xbbe4d8eb	-0.0069838664
253	0xbcae6d3f	-0.021292327
254	0xbda40342	-0.08008434
255	0x3c8c3a76	0.01711772

fc1.bias f4 [200]
0	0x3ead7ff5	0.33886686
1	0xbc13cc39	-0.009020858
2	0x3e372ed1	0.17888953
3	0xbe1e8cd9	-0.15483417
4	0xbdaffeba	-0.08593507
5	0xbe196b1e	-0.14982268
6	0xbc2a9125	-0.010410582
7	0xbdfc7083	-0.123261474
8	0x3e35c4b6	0.1775082
9	0xbe0a2cc3	-0.13493638
10	0xbce2901e	-0.027656611
11	0xbdbbf622	-0.091778055
12	0x3e1ea000	0.15490723
13	0xbe4ad00c	-0.19805926
14	0x3e87b7bd	0.2650737
15	0x3dd85815	0.10563675
16	0xbd567436	-0.05235692
17	0x3d910254	0.07080522
18	0x3e19357a	0.14961806
19	0xbdfdc399	-0.12390823
20	0xbd9a1ea2	-0.07525374
21	0x3e6cf562	0.23140481
22	0x3e35b8eb	0.17746322
23	0xbe0ba0d4	-0.1363557
24	0xbbf9b3f4	-0.007620329
25	0x3d95cb66	0.07314186
26	0x3e31aa20	0.17350054
27	0xbc4b3e78	-0.01240503
28	0xbdf62f3a	-0.120207265
29	0xbe177c87	-0.14793597
30	0xbd7bc3d8	-0.061466068
31	0x3db3077a	0.087416604
32	0x3ce33b77	0.027738316
33	0xbe0f162b	-0.139733
34	0xbd307aba	-0.04308579
35	0x3e5de6fd	0.21670146
36	0xbe5ff062	-0.21869043
37	0xbe2be87c	-0.16787905
38	0x3e25b2e8	0.16181529
39	0x3e2dfb5a	0.16990414
40	0xbe653924	-0.22385079
41	0xbe1a9de5	-0.15099294
42	0xbc331bc6	-0.010931915
43	0x3e78c094	0.24292213
44	0xbd910ee6	-0.0708292
45	0x3e23d7ea	0.16000333
46	0x3e5ef0dc	0.21771568
47	0xbc61b3fb	-0.013775821
48	0xbe04ed94	-0.12981254
49	0xbd51cbc1	-0.051219705
50	0xbcb7620d	-0.022385621
51	0x3e5ace34	0.21367723
52	0x3df601bc	0.120120496
53	0x3e7a7c4f	0.24461482
54	0xbc94e598	-0.018175885
55	0xbd9ca6c0	-0.076489925
56	0xbdaedabe	-0.085378155
57	0x3e433b11	0.19065501
58	0xbd18ab21	-0.037272576
59	0xbe559619	-0.20858039
60	0x3c744fb5	0.014911582
61	0x3dd79b0b	0.10527619
62	0x3e5e2d46	0.21696958
63	0xbd6a5887	-0.057213333
64	0xbe08b097	-0.13348614
65	0xbd4a4f05	-0.049391765
66	0xbd99834e	-0.074957475
67	0x3e13b017	0.14422642
68	0x3e5a663e	0.21328065
69	0x3d6d070a	0.05786804
70	0x3d431e62	0.047636397
71	0x3e7e3b4f	0.24827312
72	0x3e8203e8	0.25393605
73	0x3d1ed2da	0.038775302
74	0x3e32c5e9	0.17458309
75	0x3d298293	0.04138429
76	0x3df97024	0.12179592
77	0xbe07e0a0	-0.13269281
78	0xbe1631dc	-0.14667457
79	0x3dc6c8e8	0.097062886
80	0x3dc104fd	0.094247796
81	0xbe1b27be	-0.15151879
82	0xbe1e554c	-0.15462226
83	0xbdc4001c	-0.09570333
84	0x3e7fc905	0.24979027
85	0x3e2401c9	0.16016306
86	0xbde2ed24	-0.11080387
87	0x3d0feed5	0.035139877
88	0x3a9734ed	0.0011536159
89	0x3e71b6f8	0.23604953
90	0xbe29d804	-0.1658631
91	0xbe576c04	-0.21037298
92	0xbe3320e7	-0.1749302
93	0x3dfeb1ad	0.12436233
94	0xbe1d3d12	-0.15355328
95	0x3dbe9d65	0.093073644
96	0x3e346c15	0.17619355
97	0xbb9e7f33	-0.0048369407
98	0xbe28e49b	-0.16493456
99	0xbe15e58c	-0.14638346
100	0x3d3c1ea6	0.045927666
101	0xbc876946	-0.01652969
102	0x3c86c43b	0.016450992
103	0xbcf55503	-0.029947763
104	0xbe0d27f2	-0.13784769
105	0xbe05b661	-0.13057853
106	0xbe869af9	-0.2629011
107	0x3e399a72	0.18125322
108	0x3da529f3	0.08064642
109	0xbc8f04e5	-0.017458389
110	0xbe036bec	-0.12834138
111	0xbe43ae9f	-0.19109581
112	0xbdde9c0f	-0.108696096
113	0xbdef76c2	-0.11692573
114	0xbe5152af	-0.20441698
115	0xbe15bf12	-0.14623669
116	0xbe16fdd3	-0.14745264
117	0xbe642cfe	-0.22282788
118	0x3de01651	0.109417565
119	0x3e02b5b4	0.12764627
120	0x3db2add1	0.08724559
121	0xbe2acfb0	-0.16680789
122	0x3e4ba3cb	0.19886701
123	0x3dab132b	0.083532654
124	0x3dde5b76	0.108572885
125	0x3d8c84a4	0.06861237
126	0x3db10baa	0.08644803
127	0xbe3ff8c1	-0.18747236
128	0x3d6e53e9	0.05818549
129	0x3e8bf53f	0.27335545
130	0x3e217d20	0.15770388
131	0xbe79e130	-0.24402308
132	0xbdba4859	-0.090958305
133	0x3d41ed60	0.04734552
134	0x3da2eb61	0.07955051
135	0xbdc9d462	-0.09854962
136	0x3da3758c	0.07981405
137	0xbdeb553b	-0.11490866
138	0xbc502ef8	-0.012706511
139	0x3d280f7b	0.04103039
140	0xbe04f873	-0.12985401
141	0xbe12ab12	-0.1432307
142	0x3e30ce8a	0.17266288
143	0x3e2d9d4e	0.16954538
144	0x3d04d240	0.032427073
145	0x3e5bb802	0.21456912
146	0x3e3a0fdd	0.18170114
147	0xbd04a5fc	-0.032384858
148	0xbe067400	-0.13130188
149	0xbe21b95f	-0.1579337
150	0x3de81a49	0.113331385
151	0xbc10f138	-0.0088465735
152	0xbd1ff775	-0.039054353
153	0x3e20c987	0.15701877
154	0xbba435da	-0.0050113024
155	0xbdfe8990	-0.12428582
156	0xbdd0b01b	-0.101898395
157	0xbe0aa09f	-0.13537835
158	0x3e735343	0.2376223
159	0x3c5ad834	0.013357211
160	0xbd304dbc	-0.043042883
161	0x3e3c6e1a	0.18401375
162	0xbe377d5b	-0.17918913
163	0xbe00c5f8	-0.12575519
164	0x3e353e4b	0.17699544
165	0xbd68c143	-0.056824934
166	0x3ca60187	0.0202644
167	0xbd810193	-0.062991284
168	0x3c4a1d74	0.012336124
169	0x3cd19e45	0.025588164
170	0x3de9613b	0.11395498
171	0xbe162927	-0.14664136
172	0x3e4d70a2	0.20062497
173	0xbe93be5d	-0.28856173
174	0x3e078ea9	0.13238014
175	0xbd0a0369	-0.03369466
176	0xbda2373f	-0.079206936
177	0x3e77adce	0.24187395
178	0xbe5529db	-0.20816748
179	0xbd02d1ee	-0.031938486
180	0x3dfcb22c	0.12338671
181	0x3e3333fe	0.17500302
182	0xbe29d908	-0.16586697
183	0xbc657c2d	-0.014006657
184	0x3e8ad278	0.271137
185	0xbdb45b5e	-0.088064894
186	0x3da89170	0.08230865
187	0xbd7f275d	-0.0622934
188	0x3d93e31b	0.07221051
189	0xbe389068	-0.18023837
190	0x3dae9069	0.08523638
191	0xbe339ec5	-0.17541035
192	0x3db3403a	0.087524846
193	0x3d8d8319	0.069097705
194	0xbdd1cd34	-0.102442175
195	0xbd43c9f6	-0.047800027
196	0xbe4b1095	-0.19830544
197	0xbdcb727e	-0.09933947
198	0x3def0539	0.11670918
199	0xbddd2f63	-0.10800054

fc2.weight f4 [150, 200]
0	0x3e260405	0.16212471
1	0x3d37ab37	0.044841018
2	0x3db71170	0.08938873
3	0x3df1915e	0.11795305
4	0x3df29254	0.11844316
5	0xbaa6b164	-0.0012717661
6	0x3d0aa860	0.03385198
7	0xbdd4436c	-0.10364422
8	0xbd104e2c	-0.0352308
9	0xbd3147c1	-0.04328132
10	0x3d9e14ad	0.07718787
11	0x3d9dabb8	0.076987684
12	0xbdba4b7f	-0.09096431
13	0x3e0e3fdb	0.13891546
14	0x3dde123d	0.108433224
15	0xbd4e6ae6	-0.050394915
16	0xbd8e040c	-0.06934366
17	0x3e05b470	0.13057113
18	0x3deed4d9	0.11661691
19	0x3a469fdc	0.00075769215
20	0x3d90e2f8	0.07074541
21	0xbda91315	-0.08255593
22	0x3d7d16fd	0.0617895
23	0x3d67e0a8	0.056610733
24	0x3dfa4072	0.12219323
25	0x3d454257	0.04815897
26	0x3e0d9fa6	0.13830432
27	0x3deb305a	0.11483832
28	0xbe5452d5	-0.20734723
29	0x3d379210	0.04481703
30	0x3e345199	0.17609252
31	0xbd7754cf	-0.060383614
32	0x3e105f61	0.14098884
33	0xbd1996ee	-0.037497453
34	0x3dc76e19	0.09737796
35	0x3c6e3306	0.014538532
36	0x3deb668f	0.11494171
37	0xbc19f4a9	-0.00939671
38	0xbde8016e	-0.11328398
39	0x3c35298b	0.011057268
40	0xbd86e504	-0.0658665
41	0xbccca63f	-0.024981616
42	0x3d7f35f0	0.0623073
43	0xbe180cf2	-0.14848688
44	0x3dd57c76	0.1042413
45	0xbd72feed	-0.059325147
46	0x3d86e842	0.065872684
47	0x3d42f779	0.04759929
48	0x3c550bd4	0.013003308
49	0xbd040d1a	-0.032239057
50	0xbd9e390d	-0.07725725
51	0x3dbadf28	0.09124595
52	0xbd97946d	-0.07401357
53	0x3d464c20	0.048412442
54	0x3da41154	0.080111176
55	0xbc8a1ef9	-0.016860472
56	0x3d89746b	0.06711658
57	0xbc3bfe89	-0.01147426
58	0x3d635095	0.05549677
59	0x3e35dc65	0.17759855
60	0xbda5bc72	-0.08092584
61	0xbdb7fd80	-0.08983898
62	0xbd5e1d4a	-0.05422715
63	0x3e430e91	0.19048525
64	0x3d1696f8	0.03676507
65	0xbc5ee463	-0.013604256
66	0x3dfdee6d	0.12398992
67	0x3da4d263	0.080479406
68	0xbe4a9bd9	-0.19786014
69	0x3c72d99c	0.01482239
70	0xbd535964	-0.05159892
71	0x3abd99de	0.0014465412
72	0x3d3b3364	0.045703307
73	0x3d2fd84d	0.04293089
74	0x3d893886	0.06700234
75	0xbceeef8b	-0.029166957
76	0xbd123e08	-0.03570369
77	0x3cf64b56	0.03006522
78	0xbdbc1006	-0.09182744
79	0x3dce5eee	0.100767
80	0x3c0cada5	0.008586322
81	0xbd70740c	-0.05870442
82	0x3c276741	0.010217489
83	0x3d70e728	0.058814198
84	0x3d926fe3	0.07150247
85	0x3d211977	0.039330926
86	0x3de9a986	0.11409287
87	0x3d9b2d64	0.07577017
88	0xbd8a412a	-0.0675071
89	0xbd741927	-0.0595943
90	0xbd83090d	-0.06398211
91	0xbb36ce9a	-0.002789414
92	0x3e064949	0.13113894
93	0x3e2f8141	0.1713915
94	0x3ba08e8e	0.0048998063
95	0x3e014b1c	0.12626308
96	0x3b192ed8	0.0023373868
97	0x3de814a3	0.11332061
98	0x3d7f0683	0.06226207
99	0x3dda4759	0.1065814
100	0xbc5fa0e0	-0.013649195
101	0x3d46ec90	0.048565447
102	0x3dd98388	0.10620791
103	0x3deff6b5	0.117169775
104	0x3e15fc23	0.14646964
105	0xbd86941b	-0.065712176
106	0x3e17dcb4	0.14830285
107	0x3d981045	0.07424978
108	0x3d635594	0.055501536
109	0xbd2fea3f	-0.042948004
110	0xbd783f37	-0.06060716
111	0x3d37897d	0.044808853
112	0x3e2b20e6	0.16711769
113	0x3d5c5d1e	0.05379974
114	0xbcf8b089	-0.030357616
115	0xbe02d9e2	-0.12778428
116	0x3e42cd89	0.19023718
117	0xbc7f7618	-0.015592121
118	0x3db0fe66	0.08642273
119	0x3d2d8b31	0.04236907
120	0xbe1e8163	-0.15479045
121	0xbe28b804	-0.16476446
122	0x3e0903ba	0.13380328
123	0x3b989369	0.0046562445
124	0x3d995276	0.07486431
125	0x3d7b7bbb	0.061397295
126	0x3cdfa9b6	0.027302604
127	0xbe0ec467	-0.13942109
128	0x3df9dc0b	0.12200173
129	0xbdb3d926	-0.08781652
130	0xbe509815	-0.20370515
131	0x3d9ced62	0.07662465
132	0x3ea26ed7	0.3172519
133	0xbe0bb837	-0.13644491
134	0x3a19cae6	0.0005866721
135	0x3d3c6250	0.045992196
136	0xbd0a9a8a	-0.033838786
137	0xbdb54d0a	-0.08852585
138	0x3d8bea34	0.0683178
139	0xbde7bcfa	-0.11315341
140	0x3dd7df50	0.1054064
141	0x3d84e46c	0.064888805
142	0x3dc5b8a5	0.09654359
143	0x3db4e0d7	0.08831947
144	0x3d9f4b19	0.077779956
145	0x3d5aebcd	0.053447533
146	0xbd4c3c79	-0.04986236
147	0x3e251c09	0.16123976
148	0x3e10dcb1	0.14146687
149	0x3d605332	0.05476684
150	0x3c45c15d	0.012070027
151	0xbd04ae62	-0.032392867
152	0xba834af9	-0.001001685
153	0xbd152f78	-0.036422223
154	0xbd0ad065	-0.033890147
155	0xbdd852a0	-0.105626345
156	0x3d1f2082	0.03884936
157	0x3e270148	0.16309083
158	0xbcb0fde6	-0.021605443
159	0xbd8c6432	-0.06855048
160	0x3d0d1703	0.034445774
161	0xbcd16e02	-0.025565151
162	0x3c50953d	0.012730894
163	0xbd2cb1ec	-0.042161867
164	0x3d5468b2	0.051857658
165	0x3d0a9c06	0.0338402
166	0x3d90368b	0.07041653
167	0xbd0d1d50	-0.034451783
168	0xbd63d74d	-0.05562525
169	0x3dc710ba	0.09719987
170	0x3e009476	0.12556633
171	0x3e0aea5b	0.13565962
172	0xbd44cd8d	-0.04804759
173	0xbb714427	-0.0036814304
174	0xbae46bfb	-0.00174272
175	0x3d919f09	0.07110412
176	0x3c7cbc09	0.01542569
177	0xbe0f4328	-0.13990462
178	0xbd946861	-0.07246471
179	0xbba35510	-0.0049845055
180	0x3dcd2bd5	0.10018126
181	0xbd384f77	-0.04499766
182	0xbd3b17e2	-0.045677073
183	0x3b5546b4	0.0032543363
184	0x3e5cc24b	0.21558492
185	0xbd4aecfb	-0.04954241
186	0xbd6ea3f4	-0.058261827
187	0xbdee3d9b	-0.11632844
188	0x3c8d0611	0.017214807
189	0x3d3ba20c	0.045808837
190	0x3b92e575	0.00448292
191	0xbc5e2877	-0.013559452
192	0x3da607be	0.081069455
193	0x3d5246b9	0.051336978
194	0xbc0e5907	-0.008688218
195	0x3d5434a6	0.051808022
196	0x3c6ef6e1	0.014585228
197	0x3e0269e1	0.12735702
198	0x3d738cd0	0.05946046
199	0x3d151fde	0.036407344
200	0xbd1195aa	-0.03554312
201	0x3d9672ce	0.07346116
202	0xbd91e47d	-0.07123659
203	0xbcf060bc	-0.029343002
204	0xbded1200	-0.11575699
205	0x3d910587	0.070811324
206	0x3cba8ccd	0.022772217
207	0x3dea529f	0.1144154
208	0xbce678a1	-0.028133692
209	0x3db7b95d	0.08970902
210	0x3cb92921	0.02260262
211	0x3c2f851f	0.010712891
212	0x3d4be5ae	0.049779586
213	0xbcc95327	-0.024575783
214	0xbd62178a	-0.05519823
215	0x3da9fcf2	0.083001986
216	0x3d95067b	0.07276627
217	0x3e63b279	0.2223605
218	0x3d1dd742	0.038535364
219	0x3def8a26	0.116962716
220	0x3e33c876	0.17556939
221	0x3d373758	0.044730514
222	0xbd14f34d	-0.036364842
223	0x3dfecd64	0.12441519
224	0xbe2bf3c4	-0.16792208
225	0xbd7db647	-0.06194141
226	0xbe0be7b0	-0.136626
227	0x3d2e7d71	0.0426001
228	0x3db1fe7e	0.08691119
229	0x3e3c53b7	0.1839131
230	0x3d6285a1	0.05530322
231	0xbd356f8f	-0.044295844
232	0xbdb88329	-0.09009392
233	0xbe141406	-0.14460763
234	0x3c3d395b	0.011549319
235	0x3d8d2588	0.06891924
236	0xbe2ecc13	-0.17070036
237	0xbd6edc04	-0.058315292
238	0x3b929fdb	0.0044746227
239	0x3dc2e91c	0.09517118
240	0x3dd4307c	0.1036081
241	0xbe40d4d1	-0.18831183
242	0x3de28c14	0.11061874
243	0xbcce652a	-0.025194723
244	0x3bc08040	0.0058746636
245	0xbe3e185a	-0.18563977
246	0x3dff4913	0.1246511
247	0xbdc5461d	-0.09632514
248	0x3d3ef0f5	0.046616513
249	0xbd177ba0	-0.036983132
250	0xbaa9e10d	-0.0012960747
251	0x3d470995	0.048593123
252	0x3d0ed705	0.034873027
253	0x3d4648fd	0.04840945
254	0xbe04ff6d	-0.12988062
255	0x3d71065d	0.05884396

fc2.bias f4 [150]
0	0xbd2157e6	-0.039390467
1	0xbd01ccf6	-0.031689607
2	0x3d5c176a	0.053733267
3	0xbd2eee6d	-0.04270785
4	0x3dc3d9a6	0.095629975
5	0x3c023976	0.00794827
6	0x3d095915	0.03353222
7	0xbcde0d2d	-0.027105892
8	0xbd856f03	-0.065153144
9	0x3d0acbb5	0.033885676
10	0x3da6b7ed	0.0814055
11	0xbd9d28e4	-0.07673815
12	0x3da14e06	0.0787621
13	0x3d9cbf3e	0.07653664
14	0x3c4e2402	0.012581827
15	0x3d0f548e	0.034992747
16	0x3d1497c3	0.036277544
17	0xbd6d3f2f	-0.057921585
18	0xbb13b7b4	-0.0022539916
19	0x3d229fca	0.039703168
20	0x3d8984a2	0.06714751
21	0xbd999d55	-0.07500712
22	0x3c260f84	0.010135535
23	0x3d73abc4	0.05948998
24	0xbbbb6565	-0.0057188743
25	0x3da07646	0.07835059
26	0x3c6f3308	0.014599569
27	0x3d8444ab	0.0645841
28	0x3d8fe486	0.07026009
29	0x3ca1f863	0.01977176
30	0xbd9ae728	-0.07563621
31	0x3de3993d	0.11113212
32	0xbb85ae36	-0.0040796055
33	0xbda99ead	-0.08282218
34	0x3dbe2857	0.09285038
35	0x3d8bba8d	0.06822691
36	0x3ca67d56	0.020323437
37	0xbd36c1d0	-0.044618428
38	0xbd992fa9	-0.074797936
39	0xbd97662b	-0.07392534
40	0x3c03e540	0.008050263
41	0xbc8e7020	-0.01738745
42	0xbc315c60	-0.010825247
43	0xbd4f18f7	-0.050560918
44	0xbd2797ef	-0.04091638
45	0x3e033354	0.12812549
46	0x3e0fadd7	0.14031158
47	0x3d2be779	0.041968796
48	0x3bd5d833	0.006526017
49	0xbc53fbb0	-0.012938425
50	0xbcf60c3c	-0.03003513
51	0xbdc1a04a	-0.09454401
52	0xbe04be57	-0.12963234
53	0x3c8929ab	0.016743502
54	0x3d6174e9	0.055043135
55	0x3c9d1f9a	0.019180108
56	0x3d3ea636	0.04654523
57	0xbd1bb882	-0.038017757
58	0x3dd4d591	0.10392297
59	0xbdfbfaa1	-0.12303663
60	0x3d8ce1c2	0.068789974
61	0xbb9113ba	-0.0044274004
62	0x3caa5499	0.020792292
63	0x3dc00752	0.09376396
64	0xbcfa93f6	-0.030588131
65	0x3d95c5e3	0.073131345
66	0x3d0f58f5	0.034996945
67	0xbc596482	-0.013268592
68	0xbdd84d9c	-0.10561678
69	0x3d8a3994	0.067492634
70	0x3d60a552	0.05484516
71	0x3d8eb757	0.06968563
72	0x3e054759	0.13015498
73	0xbb6a105f	-0.0035715324
74	0xbd09b9d1	-0.033624474
75	0xbca403a1	-0.020021262
76	0xbd8751b4	-0.066073805
77	0x3d8e210a	0.069398955
78	0xbe0db195	-0.13837273
79	0xbd000ee8	-0.031264216
80	0xbd48e7a2	-0.049049027
81	0xbcb7d23d	-0.022439117
82	0xbd4c1c04	-0.049831405
83	0xbd9b175f	-0.07572817
84	0xbd9f12c4	-0.07767251
85	0x3dd113e8	0.10208875
86	0x3d413300	0.047167778
87	0xbc1e9840	-0.009679854
88	0xbd5f793e	-0.054558985
89	0xbdb162a5	-0.08661393
90	0x3ca460b9	0.020065652
91	0x3cf554be	0.029947635
92	0xbd502324	-0.050814763
93	0x3db04de9	0.0860861
94	0x3d0fd604	0.03511621
95	0x3d93feae	0.07226311
96	0x3d53e55e	0.051732413
97	0xbcbf35a1	-0.023341002
98	0xbd1e9b75	-0.038722474
99	0x3b35dae1	0.002774887
100	0x3d860cf3	0.065454386
101	0xbca1f080	-0.019768
102	0x3db19911	0.08671773
103	0x3dbad0c4	0.0912185
104	0x3d1b3e4e	0.037901215
105	0xbca6fec2	-0.02038515
106	0x3bbb272f	0.005711458
107	0x3d9be4b8	0.07611984
108	0x3c94c2de	0.018159326
109	0x3d28c662	0.041204818
110	0x3d2ce793	0.042213034
111	0x3c4d80f1	0.012542949
112	0x3c1f00a3	0.009704742
113	0x3dc0e021	0.09417749
114	0x3dd192b4	0.102330595
115	0xbd632c6a	-0.05546228
116	0x3cc9b1aa	0.02462085
117	0xbd8820c1	-0.06646872
118	0x3d63a7ed	0.05558007
119	0x3da8bba1	0.082389124
120	0x3c1345d3	0.008988815
121	0x3dfcb852	0.12339844
122	0xbce07026	-0.027397227
123	0x3d988c8f	0.074486844
124	0xbdd7ed2e	-0.10543285
125	0x3dda553b	0.10660788
126	0xbd25a7c3	-0.040443193
127	0x3b0310b3	0.0019998967
128	0x3d841e31	0.06451071
129	0x3c9da374	0.01924298
130	0x3d99132b	0.07474359
131	0xbcecda5a	-0.028912712
132	0x3ddd6798	0.108107746
133	0xbd204929	-0.03913227
134	0x3c076389	0.008263477
135	0xbd4cd857	-0.050011005
136	0x3e1481c0	0.1450262
137	0xbd088e77	-0.03333899
138	0x3dadb1da	0.08481188
139	0xbac53c16	-0.0015047814
140	0x3d5105fc	0.051031098
141	0x3d1a00bf	0.037598368
142	0x3d87461c	0.06605169
143	0x3c429d08	0.0118782595
144	0xbc931bb0	-0.017957538
145	0x3d8928bd	0.06697223
146	0x3dce01bd	0.10058925
147	0xbc7e6b33	-0.015528488
148	0x3d8aee91	0.06783784
149	0xbdd91b51	-0.10600913

fc3.weight f4 [2, 150]
0	0xbd9a9103	-0.0754719
1	0xbcfb1ac3	-0.03065241
2	0x3dfad676	0.122479364
3	0xbda0b273	-0.078465365
4	0xbdb08d89	-0.08620746
5	0x3ec7a8c4	0.38995945
6	0x3d5fb6de	0.054617755
7	0xbe0982b4	-0.13428766
8	0xbe1085a9	-0.14113487
9	0x3e0b3ed4	0.13598186
10	0xbd2ffc77	-0.04296538
11	0xbc1e95ac	-0.009679239
12	0xbe2f2475	-0.17103751
13	0x3d9d394b	0.076769434
14	0xbda55920	-0.0807364
15	0x3d2e2889	0.042519126
16	0xbccf5121	-0.02530724
17	0xbe138f93	-0.14410238
18	0x3b25fdb8	0.002532823
19	0xbd72d85e	-0.059288375
20	0x3c9ceb43	0.01915515
21	0xbd9e3958	-0.07725781
22	0x3df3706d	0.11886678
23	0xbc8a4ef1	-0.016883345
24	0x3d3e9e99	0.04653797
25	0x3e1bbe1c	0.1520924
26	0xbe467108	-0.19379056
27	0xbb96f3de	-0.004606708
28	0xbdfc0d2b	-0.12307199
29	0x3c193332	0.009350585
30	0xbdec458e	-0.11536704
31	0x3ca15918	0.019695804
32	0xbd8c934d	-0.06864033
33	0xbe0b81d6	-0.13623747
34	0x3d3ff510	0.04686457
35	0x3db887cc	0.09010276
36	0xbcdab613	-0.026698148
37	0xbccc81a9	-0.02496417
38	0xbdd56043	-0.10418751
39	0xbd525d56	-0.051358543
40	0x3d693cf9	0.056942914
41	0xbe0006c9	-0.12502588
42	0x3da05ea0	0.07830548
43	0xbd48b6aa	-0.049002327
44	0xbeaad8bb	-0.33368477
45	0x3d1bc1ad	0.0380265
46	0x3d425637	0.047445502
47	0x3e026d27	0.12736951
48	0xbd162ed2	-0.036665745
49	0x3b94f9cb	0.004546379
50	0x3ceac1b9	0.028656827
51	0xbd77a562	-0.060460456
52	0xbdaab7d8	-0.08335847
53	0xbd851190	-0.064974904
54	0x3c922855	0.017841497
55	0x3e647b22	0.22312596
56	0x3d5c3134	0.05375786
57	0xbdc58276	-0.09644024
58	0x3e63fb0c	0.22263736
59	0xbdd72890	-0.105057836
60	0x3d8674a0	0.06565213
61	0xbd95aa6e	-0.073078975
62	0x3c21d69b	0.009877826
63	0x3c02a99f	0.007975011
64	0xbd882b9f	-0.06648945
65	0xbdaaa025	-0.083313264
66	0x3ebab759	0.36468008
67	0xbc74dd26	-0.014945304
68	0xbe0867da	-0.13320866
69	0x3cf7e736	0.030261617
70	0x3d84edcf	0.06490671
71	0xbd2810d6	-0.04103168
72	0xbf1ab02b	-0.6042506
73	0x3d06a5c1	0.03287292
74	0x3e76e4f4	0.24110776
75	0x3d91e992	0.07124628
76	0xbdd11b96	-0.1021034
77	0xba546eb4	-0.0008103654
78	0xbe36a654	-0.17836887
79	0xbd096a6d	-0.03354876
80	0x3cacd2c6	0.021096598
81	0x3dc448fe	0.09584235
82	0xbde81aa9	-0.1133321
83	0xbd2ffa4e	-0.04296332
84	0xbd3909f1	-0.045175496
85	0x3e490f4a	0.19634739
86	0x3e1f479f	0.15554665
87	0x3e8514ca	0.25992423
88	0x3d555a79	0.052088235
89	0xbc921a8a	-0.01783492
90	0x3e43a53e	0.19106004
91	0x3d55f74b	0.05223779
92	0xbcea34af	-0.028589575
93	0x3d81370d	0.06309328
94	0x3c13080c	0.0089740865
95	0x3d3570eb	0.04429714
96	0x3d37f24f	0.044908818
97	0x3e852ece	0.26012272
98	0xbc82aaec	-0.015950643
99	0x3ca34350	0.019929558
100	0x3d6a4c37	0.05720159
101	0xbcef5669	-0.029216008
102	0x3d00a7db	0.03141008
103	0xbc5a6068	-0.013328649
104	0x3e0cdd24	0.13756233
105	0xbba3918e	-0.0049917167
106	0x3d3c6f65	0.04600467
107	0x3d53692c	0.05161397
108	0x3c9fac16	0.019491237
109	0x3d5d7eec	0.05407612
110	0x3e042c73	0.12907581
111	0x3e291df7	0.16515337
112	0x3cdc180c	0.026866935
113	0x3e18cf47	0.1492282
114	0x3e4cabb6	0.19987378
115	0xbe2af046	-0.1669322
116	0x39d2c490	0.00040200772
117	0xbd8f5823	-0.069992326
118	0x3d5bd3d7	0.053668823
119	0x3d4d2fa6	0.05009427
120	0xbd13d6f4	-0.036093667
121	0x3d8f05de	0.06983541
122	0xbd4034a8	-0.046925217
123	0x3d66e074	0.0563664
124	0xbe54b7f8	-0.20773304
125	0x3ca7b44c	0.020471714
126	0xbe0e4e49	-0.13897051
127	0x3c1b6f60	0.009487003
128	0x3ea0654d	0.31327286
129	0x3e91ef2f	0.28502795
130	0x3cea4b8e	0.02860048
131	0x3c994fd0	0.018714815
132	0xbc05f33b	-0.008175666
133	0x3df9ccb6	0.12197249
134	0x3e0e9e61	0.13927604
135	0xbe995aa9	-0.2995198
136	0x3d0c5f90	0.034270823
137	0xbe0c33b5	-0.136916
138	0x3ccaaee9	0.024741607
139	0x3d91b81b	0.071151935
140	0x3e4092b8	0.18805969
141	0x3c56884c	0.013094019
142	0x3e33cf15	0.17559464
143	0x3e232ccd	0.15935059
144	0xbb2b7925	-0.0026164737
145	0xbda0245b	-0.07819434
146	0x3d9916aa	0.07475026
147	0xbd083808	-0.03325656
148	0x3d290929	0.0412685
149	0xbda04f89	-0.0782767
150	0x3a4c6f96	0.000779861
151	0xbe0b0d08	-0.1357919
152	0xbe61545e	-0.2200484
153	0x3d24d668	0.040243536
154	0x3efda4e6	0.4953987
155	0x3d7a734e	0.06114512
156	0x3b19cc7b	0.0023467827
157	0xbd05e88f	-0.03269249
158	0xbe620868	-0.22073519
159	0x3dea825e	0.11450647
160	0x3dc37696	0.09544103
161	0xbe05d232	-0.13068464
162	0xbd69a249	-0.057039533
163	0xbd92cdaf	-0.07168137
164	0x3e4f2469	0.20228733
165	0x3b28fe89	0.002578648
166	0x3de69b86	0.112601325
167	0x3e4b9401	0.19880678
168	0xbe699cbc	-0.22813696
169	0x3e199eb1	0.15001942
170	0xbd905e59	-0.070492454
171	0xbd58bb24	-0.052912846
172	0xbdb586ea	-0.088636234
173	0xbc4cefa8	-0.01250831
174	0xbe8eb687	-0.27873632
175	0xbd9b673e	-0.07588051
176	0x3d9dc407	0.07703405
177	0xbe0a5a66	-0.13511047
178	0x3d47058c	0.048589274
179	0xbe5a698e	-0.21329328
180	0xbe4bb347	-0.19892608
181	0xbd4b025e	-0.049562804
182	0xbe4662eb	-0.19373672
183	0xbe2160d0	-0.15759587
184	0xbd228508	-0.03967765
185	0x3cdb7564	0.026789375
186	0x3e5815a4	0.21102005
187	0xbe149cd3	-0.14512949
188	0xbd7fe19e	-0.062471025
189	0xbdd4e696	-0.10395543
190	0x3e313535	0.17305453
191	0xbd584b14	-0.052805975
192	0xbe0cf45e	-0.13765094
193	0x3ddd71c7	0.10812717
194	0x3d3c0452	0.045902558
195	0x3d2e1ef9	0.042510007
196	0x3bf558be	0.0074873855
197	0xbe180770	-0.14846587
198	0xbdab647e	-0.08368777
199	0x3e602598	0.21889341
200	0x3df9df66	0.12200813
201	0xbd5d4366	-0.054019354
202	0xbcf4a4ee	-0.0298638
203	0xbe84e484	-0.25955594
204	0xbd4ab161	-0.049485568
205	0x3b9ea480	0.0048413873
206	0xbe1aada7	-0.15105306
207	0x3c7b8ef3	0.015353906
208	0x3e151915	0.1456035
209	0xbd904033	-0.07043495
210	0x3d35494e	0.044259362
211	0xbd9408bb	-0.07228228
212	0xbd045044	-0.03230311
213	0xbc922350	-0.017839104
214	0xbdb667ac	-0.089064926
215	0x3e13d7ef	0.14437841
216	0xb97c9dbd	-0.00024091355
217	0xbd8194e4	-0.06327227
218	0xbe44df90	-0.19225907
219	0x3dc349a6	0.09535532
220	0xbdbac020	-0.09118676
221	0x3ddb1b0c	0.10698518
222	0x3e2dd742	0.16976646
223	0xbe26b037	-0.16278158
224	0xbde4bcee	-0.11168848
225	0xbe1c0ccb	-0.15239255
226	0xbd5a243c	-0.053257212
227	0xbe359f04	-0.17736441
228	0x3bb845af	0.0056235413
229	0xbdad7f13	-0.08471503
230	0xbdd1f9a4	-0.10252693
231	0x3d1b3db0	0.037900627
232	0xbdc0dfc4	-0.0941768
233	0xbda0f5d2	-0.078593865
234	0xbd0bf66d	-0.034170557
235	0x3d0faedd	0.035078872
236	0xbe0eb894	-0.13937598
237	0x3e103967	0.14084397
238	0x3e516082	0.20446971
239	0xbe3a09d9	-0.18167819
240	0x3da4b768	0.080427945
241	0x3dd97799	0.106185146
242	0xbde17a7c	-0.1100969
243	0xbd1ba227	-0.037996437
244	0x3e0080eb	0.12549178
245	0xbd101b94	-0.03518255
246	0xbdd0cf99	-0.10195846
247	0x3e12ee54	0.14348727
248	0x3dcd0f55	0.1001269
249	0xbd2e1882	-0.04250384
250	0xbe19ca10	-0.15018487
251	0x3e3cf4db	0.1845278
252	0x3dbf5cdf	0.09343886
253	0x3e045f52	0.12926987
254	0xbdb9be06	-0.09069447
255	0xbd9d2b71	-0.076743014

fc3.bias f4 [2]
0	0xbd07f953	-0.03319676
1	0x3d369809	0.044578586
