maddpg/models/actor_params_1.pth (torch_old, 142811 bytes, 6 tensors)

fc1.weight f4 [200, 24]
000000 fb 88 f3 3b 58 71 17 bc b1 1d 38 bd bf b0 04 3e
       0.007432101 -0.009243332 -0.04495019 0.12958048
000010 a0 db 64 3d 64 33 85 3d 0c cd 64 3c 83 fc 13 3d
       0.055873513 0.065039426 0.013964903 0.036129486
000020 e5 7a e8 38 7e 07 91 3d 99 5a 62 bd d1 3c e4 3d
       0.00011085513 0.07081507 -0.055262182 0.11144412
000030 6d ae 79 3c 66 21 e3 bd 72 a6 27 bd b3 58 0b 3e
       0.01523934 -0.110903546 -0.04093022 0.13608055
000040 92 1a 62 bd ac 9b 9f 3d 9d 0f 83 bd 38 4b 0a 3e
       -0.05520112 0.07793364 -0.06399462 0.13505256
000050 41 fd 61 bd c6 be 3a be 60 bf dd 3c 75 05 6f 3d
       -0.055173162 -0.18236837 0.027068794 0.058354814
000060 02 a5 22 3b 04 a9 22 bb ea 3f 4e 3b 90 6a 48 3d
       0.002481759 -0.002481998 0.0031471201 0.04892975
000070 3a e8 e8 bd fb 1c 83 bc 01 ff 87 3d f3 b8 e8 3c
       -0.11372419 -0.01600503 0.06640435 0.028408503
000080 25 25 07 bc cc a0 de bb 58 dd c2 bc fc ff 96 3d
       -0.008248602 -0.006794071 -0.023787186 0.07373044
000090 b9 3d b8 bd e5 19 28 3d 1f 3a ee bc 51 9c a8 3c
       -0.08996148 0.04104032 -0.029080449 0.02058235
0000a0 f6 f4 67 bd d4 e6 81 3d b4 82 d8 3c 13 16 fa ba
       -0.056630097 0.06342855 0.026429512 -0.0019080065
0000b0 d5 e1 21 be d3 67 1d 3e 7c 58 6c bb b5 d3 b6 bc
       -0.15808804 0.15371637 -0.0036063483 -0.022317747
0000c0 78 b1 80 3d 99 42 e5 bd 09 0c 44 3d 93 14 94 bd
       0.062838495 -0.11194343 0.04786304 -0.07230487
0000d0 56 af a4 bc 0a a5 31 3d 5c 63 77 3d 4d f3 8c bd
       -0.020103138 0.043370284 0.06039749 -0.068823434
0000e0 85 c0 28 bd 6d 23 58 bd a8 a6 b2 bd a9 11 f4 bc
       -0.041199226 -0.05276816 -0.087231934 -0.029793577
0000f0 22 d4 cc 3d 40 fc ec 3d 67 64 cf bd 74 c0 f4 bd
       0.100013986 0.1157155 -0.10126572 -0.1195077
000100 5b 77 ec bc f9 45 fa bd 69 5b 25 be 9e 12 b2 ba
       -0.028865507 -0.122203775 -0.16148151 -0.0013585871
000110 1e bc 19 3e 10 31 d2 bd b3 91 42 bd 77 23 09 3d
       0.15013167 -0.10263264 -0.04750223 0.033481088
000120 58 12 3d bd ae 02 c1 3d d6 f9 09 bb 6e 2d 4e 3d
       -0.046160072 0.09424339 -0.0021053455 0.050336294
000130 2c 1c 16 be 1a 68 08 bd 2e 6f 0a bc 9b 53 34 3e
       -0.14659184 -0.033302404 -0.008449359 0.17610018
000140 db c8 d8 bd 97 e2 21 3e d6 30 8b bd e9 9a 9d 3d
       -0.10585185 0.15809093 -0.06796424 0.076955624
000150 ab bd a8 bd 28 a6 2a be 38 cb bc bd 48 33 d4 3c
       -0.08239301 -0.16664946 -0.092184484 0.025903359
000160 85 c7 80 bc 16 d0 0e 3e 67 ae 90 bd 0d 9f c3 3d
       -0.015720138 0.13946566 -0.070645146 0.09551821
000170 2b 88 b1 bd b3 2f 91 be dc a6 0f be fb 87 ce 3c
       -0.0866855 -0.28356704 -0.14028496 0.025211325
000180 c7 50 12 3d e9 8e a9 3d 38 44 79 be 01 9d 08 bd
       0.035721567 0.08279211 -0.2434243 -0.033352856
000190 78 52 cf bc af 72 68 3e 99 38 26 be f2 e9 7e 3d
       -0.025307879 0.22699998 -0.16232528 0.062234826
0001a0 8c f5 63 3c 86 71 12 3e 20 ab c6 3b 1c 02 7a 3d
       0.013913523 0.14301118 0.00606288 0.061037168
0001b0 b6 d8 e9 3d 66 86 b2 3d 1f 0e 78 bd 20 3f 08 3d
       0.114182875 0.08717041 -0.060560342 0.033263326
0001c0 c4 e0 be bc 13 c7 3d 3e 64 c3 f4 bc f6 3b 28 be
       -0.023300536 0.18532972 -0.029878326 -0.16429123
0001d0 8d 35 45 3d 0c 7e 91 bd af 4d b6 3c 68 67 8b bd
       0.048146773 -0.0710412 0.02225384 -0.068068326
0001e0 86 10 37 3d 3d f0 36 3d 41 72 2d 3e 55 68 a3 3b
       0.044693492 0.044662703 0.16938116 0.0049868026
0001f0 47 6d 8c 3c a2 cc 8c bc 65 29 11 3e 38 04 b1 bd
       0.017141951 -0.01718742 0.14175947 -0.08643383
000200 6a 8d 7a 3d a5 50 db 3d 16 6c 1d bd cb 88 4d 3d
       0.06117002 0.10708741 -0.038433157 0.050179284
000210 50 99 b6 bd 9d d3 09 3e aa b1 59 bd 97 f8 2a 3e
       -0.08915961 0.1345963 -0.05314795 0.16696392
000220 25 6e 51 3c 96 f4 01 3d 4f 40 46 3e 77 e1 55 3d
       0.012782608 0.031727396 0.1936047 0.052216973
000230 08 19 37 be 26 b1 e6 3d 3a a2 be 3d b9 52 35 3d
       -0.17880642 0.11264257 0.09308286 0.044268344
000240 af 28 f9 3d be 51 c2 3c d5 ca c9 3d 7a b4 f0 bd
       0.12165963 0.023720618 0.0985314 -0.11753173
000250 fb 3d 6f be 60 1d 2e bd b0 40 6b bc a7 ad be bd
       -0.23363487 -0.042508483 -0.014358684 -0.09310465
000260 7f 8e 7b 3d bd b3 6f bd 3c 05 b4 3d d2 aa 39 be
       0.06141519 -0.05852102 0.08790061 -0.18131569
000270 68 8d 95 bd 2b a1 c2 3d 78 c1 24 3c f8 03 16 be
       -0.07302362 0.095033966 0.010055892 -0.14649951
000280 9a 42 c5 bc 88 da 1e 3d b5 83 18 be 47 6c 23 bc
       -0.02407961 0.038782626 -0.14893992 -0.009974546
000290 0e 04 8e 3d 9c 2d e9 3c 08 04 b5 bd 8d d3 9c bd
       0.06934367 0.028464131 -0.088386595 -0.076575376
0002a0 35 fd 8c 3d 87 a3 e8 bd 6d 78 eb 3c 41 36 01 be
       0.06884233 -0.11359315 0.028743947 -0.12618352
0002b0 54 7d 08 3d 73 57 ce 3d ff 30 a1 bd 8c 36 9d bd
       0.033322647 0.10075273 -0.078706734 -0.076764196
0002c0 9b ee 73 bd b9 15 e0 bd c9 a2 26 bb ef 9f 25 be
       -0.059553724 -0.10941643 -0.0025426617 -0.16174291
0002d0 50 f7 e0 bd ed 65 53 3e 40 44 06 3d c0 9f 83 bd
       -0.10984671 0.2064435 0.032779932 -0.06426954
0002e0 3d 08 04 3c 05 17 ed bb 50 3d 97 3d 60 06 bc bd
       0.008058605 -0.00723541 0.07384741 -0.091809034
0002f0 09 b7 41 be e1 56 29 3e 36 63 52 bd f7 e0 49 be
       -0.18917479 0.16537048 -0.051364146 -0.19714724
000300 11 a6 06 bd 48 ac 22 be 02 65 3f 3b c4 67 f4 3d
       -0.032873217 -0.15886033 0.0029204492 0.11933854
000310 7c 25 08 3e 8c 40 ed 3d 9f 5d 3e 3c 9f 7c c3 3c
       0.13295549 0.11584577 0.011619001 0.023863135
000320 65 f6 cf bd 4b 6e ab bd 64 71 45 bc f9 44 42 bd
       -0.10154418 -0.08370646 -0.01205096 -0.04742906
000330 d3 92 25 3d c9 8a 15 3d 8f 69 1c 3d bc 92 d3 3b
       0.040423226 0.03650931 0.038186606 0.006456701
000340 aa 86 94 bd ce 27 00 bd 02 bf ab bc d9 16 31 bd
       -0.07252248 -0.03128796 -0.020965103 -0.04323468
000350 8c 38 66 bd d9 48 39 bc 0c 82 19 3d b8 15 f4 bd
       -0.05620627 -0.011308872 0.037477538 -0.11918205
000360 13 7c e5 bd 26 a5 4a bc c0 72 20 bc 9c 58 00 bd
       -0.11205306 -0.012368476 -0.0097929835 -0.031334504
000370 f3 48 34 3e 6e 1d bc 3c 8b 57 02 3d 06 65 52 bd
       0.17605953 0.022963252 0.03182177 -0.051365875
000380 32 39 20 3d c3 72 93 3d 63 f0 56 3d 64 ed 9b bd
       0.039117046 0.071996234 0.052475344 -0.07613638
000390 41 8f e2 3d 71 ed 2a bd e3 70 81 bd 4f 43 99 bd
       0.1106248 -0.041730348 -0.063203596 -0.07483541
0003a0 66 c4 b6 bc 20 35 79 bd dc 17 0f bd 2e 18 1d 3d
       -0.022310447 -0.06084168 -0.034934863 0.038353138
0003b0 89 ef d2 3d 90 99 95 3d 37 7b cb bd 47 f6 91 bc
       0.10299594 0.0730468 -0.09935611 -0.01781763
0003c0 50 89 f2 bc 05 4b bd 3c ef 06 a5 bd b3 aa 3a 3e
       -0.029606491 0.023107061 -0.08057963 0.18229179
0003d0 02 21 37 bd c4 11 16 3c 97 f9 9b bd fd a0 58 3e
       -0.044709213 0.009159509 -0.07615965 0.21155162
0003e0 80 c3 90 bd 63 99 af 3c d1 5d 05 3d a6 60 04 3e
       -0.07068539 0.021435445 0.032560173 0.12927493
0003f0 2a 17 f4 3c 51 9c de 3c 34 c8 b3 bd 8d 66 12 3d
       0.029796202 0.027174147 -0.0877842 0.03574233

fc1.bias f4 [200]
000000 b9 cc 58 3e b1 3f ca 3d f0 a0 18 3e 65 e6 92 bc
       0.21171845 0.098754294 0.14905143 -0.017932126
000010 88 92 39 be 25 e2 8c bd 84 2a 12 bc fa 06 af bd
       -0.18122303 -0.06879071 -0.008921269 -0.085462525
000020 50 c2 5b 3e 07 08 15 be d9 4d 13 be b8 ca 35 bd
       0.21460843 -0.14553843 -0.14385165 -0.04438278
000030 51 71 52 3e 68 a0 c1 bc 83 96 50 3e 78 0f 8a 3d
       0.2055104 -0.023636058 0.20369916 0.06741232
000040 43 a0 b9 3d 22 80 10 3e 8a 0f e5 3d 7e 67 c7 bd
       0.090637706 0.14111379 0.111846045 -0.097365364
000050 28 77 1c 3c 2d f3 64 3e 3d 6b a0 3d a7 f8 22 be
       0.009549893 0.22358389 0.07832954 -0.15915166
000060 43 c8 86 bd 9e 5a de 3d 85 66 14 3e b6 0b 97 3d
       -0.06581166 0.108571276 0.14492233 0.073752806
000070 81 69 bc bd 4c b5 5e bd 15 cc 47 bd 05 e5 bd 3d
       -0.09199811 -0.054372117 -0.048778612 0.09272198
000080 e8 2f 2c bd ed 1e 0f be f3 a5 4d bd 21 64 83 3e
       -0.042037874 -0.13976641 -0.05020709 0.2566233
000090 aa ed 6c bd 2a 16 2a be 60 48 e1 3d b7 74 42 3e
       -0.05784384 -0.16610017 0.110001326 0.18989836
0000a0 e2 91 51 be 32 df 51 be dc 4a 9e bd 41 0e 64 3e
       -0.20465806 -0.20495299 -0.07729122 0.22271062
0000b0 bd 25 d9 bc a5 0d 0f 3d 0e 62 f7 3d 1f 06 d3 bc
       -0.026507253 0.03492512 0.12079249 -0.025759755
0000c0 aa 9d 75 bd 3f 27 f1 bd ec 52 cd bc fd 29 84 3e
       -0.059964813 -0.11775064 -0.025063954 0.25813285
0000d0 c2 10 07 3e f1 1d 63 3e 6a 27 8c bc ce fa 8f bd
       0.13189986 0.2217939 -0.017108638 -0.07030259
0000e0 98 49 85 3c 7b 60 0f 3e b6 23 ad 3c 4b 70 85 bd
       0.016270444 0.14001648 0.021135192 -0.06515559
0000f0 2e dd f8 bd 14 3e a2 3d d8 6b 72 3e 7d 4d 58 bd
       -0.12151562 0.07921997 0.23673952 -0.052808274
000100 78 d3 ea bd 6c 86 43 be 1d df b7 bd 76 78 fa 3d
       -0.11466116 -0.19094247 -0.08978102 0.12230007
000110 13 a3 fc 3d 01 fc 3e 3c ad 96 07 3e bb 40 42 3e
       0.123357914 0.011656762 0.13241072 0.18970005
000120 c9 a8 88 3e 02 c7 3b 3e 88 b9 0b 3e 1e 2f d8 3d
       0.26691273 0.18337634 0.13644993 0.10555862
000130 f7 f8 92 3d 53 87 0e be 60 33 28 bd 80 db ad 3d
       0.071763925 -0.1391881 -0.04106462 0.08489132
000140 30 3e f9 3d 75 77 56 be f5 90 e1 bd 7a 56 1f be
       0.121700644 -0.20944007 -0.110139765 -0.15560332
000150 97 8a 2b 3e 32 e8 19 3e 03 bb 90 bd b0 ec 2e bc
       0.16752087 0.15029982 -0.0706692 -0.010676548
000160 cf 75 3e bd 92 f4 36 3e 5f d8 4d be e2 dd 44 be
       -0.04649907 0.17866734 -0.2010207 -0.19225267
000170 56 eb 57 be 52 7c 23 3e 85 71 a5 bd 83 61 eb 3d
       -0.21085867 0.15965393 -0.08078293 0.11493208
000180 8f 17 39 3d 78 27 cd 3c a9 88 8b bd 2e 81 c5 bd
       0.045188483 0.025043234 -0.06813175 -0.0964378
000190 e6 b2 ca 3d 64 8d 03 be 1f a3 d5 3d 55 4f af 3d
       0.098974034 -0.12846905 0.104315035 0.08560053
0001a0 fd a7 ad bd 3b 4f e5 bd e3 07 54 be 66 ec c2 3d
       -0.08479307 -0.11196753 -0.20706134 0.09517746
0001b0 c2 ca 53 3c 5e 41 48 bd 09 58 17 be 78 5e 64 be
       0.012926759 -0.048890464 -0.14779676 -0.22301662
0001c0 62 c2 99 bd 7d 2b fc bd 3c bb 2e be 6b c9 1a be
       -0.07507779 -0.12312982 -0.17063612 -0.15115897
0001d0 55 21 3e bd 6c 51 54 be 9f 7b 11 3c d8 43 f5 3d
       -0.046418507 -0.20734185 0.008879571 0.11975831
0001e0 31 a2 06 3e 89 55 4d be 96 5e 15 3e 7b 69 27 3d
       0.13147809 -0.2005216 0.14586863 0.04087208
0001f0 84 29 ca 3d ec 43 39 bd b7 20 cd 3d fa 03 45 be
       0.098712 -0.04523079 0.100160055 -0.19239798
000200 d4 fb ca 3d 7b ec 09 3e a7 0a ab 3d f6 0b b7 bd
       0.09911314 0.13469116 0.08351641 -0.08937828
000210 4f e8 25 3d 3f ae 26 3b 55 e4 04 3e d1 1c 45 bb
       0.04050475 0.0025433449 0.12977727 -0.003007699
000220 56 24 19 3d 1e 98 a0 3d 80 f6 2b 3d 1e 0b 83 3d
       0.03738817 0.07841514 0.041983128 0.06398605
000230 77 e9 a4 bd 4f 23 e7 bd a1 c4 0b 3e 19 af 23 3e
       -0.080523424 -0.112860315 0.13649227 0.15984763
000240 e2 6e cf bc dd 85 48 3e 5a 75 15 3e a1 cd 6e be
       -0.025321428 0.19582315 0.14595547 -0.23320629
000250 f6 83 67 bd 32 2b 46 be e1 b9 00 3e ae 52 df 3c
       -0.056522332 -0.19352415 0.12570907 0.027261104
000260 cc 11 aa bd 68 5e 31 3e ab 87 78 bc 84 bf 47 be
       -0.08304176 0.1732117 -0.0151690645 -0.19506651
000270 d1 2a fb bd 64 c7 5f bd 5e 07 79 3e d6 6c 20 bd
       -0.12264026 -0.054633513 0.24319217 -0.039166294
000280 5c d9 14 bd 7e f2 c2 3d 2b f8 39 be 7c 79 b1 bd
       -0.036340103 0.09518908 -0.18161075 -0.086657494
000290 ff 05 dc 3d b8 c8 d7 bd bb 48 c9 bd 5e 96 59 3b
       0.10743331 -0.10536331 -0.09828325 0.0033201198
0002a0 9a 67 5a 3c ee 48 b8 3d 05 7c eb 3d ff a3 11 be
       0.013330365 0.08998285 0.11498264 -0.14222716
0002b0 72 a4 42 3e 94 93 5f be a3 cd 26 3d c3 96 0b be
       0.19008043 -0.2183364 0.040723454 -0.1363173
0002c0 e5 c2 24 be b6 62 3a 3e 01 d2 54 be 8e 6d 0e 3d
       -0.16089971 0.18201718 -0.20783235 0.03477245
0002d0 85 db 05 3e be 6d 09 3e db dd 7f bd 6d ab a9 bd
       0.13072021 0.1342077 -0.062467437 -0.0828465
0002e0 26 db 82 3e 30 fb 3d be 75 ae 93 3d 0f a4 bd bd
       0.25557822 -0.18552852 0.072110094 -0.09259807
0002f0 95 d8 7c 3c 9c 9e 21 be c3 20 89 3d 80 4f e1 3c
       0.015432497 -0.15783161 0.06695702 0.027503729
000300 72 19 ce 3d 3c eb cd bc 14 6f 5d 3c c5 77 a1 bc
       0.10063447 -0.025136583 0.013515253 -0.01971043
000310 8b ef 34 be 12 e9 11 be 0d f5 20 bd 25 63 50 be
       -0.17669503 -0.14249066 -0.0392962 -0.2035032

fc2.weight f4 [150, 200]
000000 25 05 e0 3d 75 4a 85 3d 51 2b 03 3d 69 78 1e 3e
       0.10938481 0.06508342 0.03202373 0.1547562
000010 ca 7d 09 bb f4 28 9f bd 74 e5 09 be 5b 62 87 bd
       -0.0020979517 -0.07771483 -0.13466436 -0.06610557
000020 1b fc 23 bd ed bd c1 3d 80 b5 80 bd 02 4a 48 bc
       -0.04003535 0.094600536 -0.062846184 -0.012224676
000030 14 35 e6 3b 41 fc 4b bd 74 6c 15 3e 06 b4 e4 bd
       0.0070253704 -0.049801115 0.14592153 -0.11167149
000040 79 ff 81 bc 8f eb cd 3d 7b d6 b4 3d f2 6f 6e bd
       -0.01586889 0.10054695 0.088299714 -0.058212228
000050 d1 c3 2c bd 34 e6 8d bd 06 29 de 3d b3 66 21 3c
       -0.042178933 -0.069286734 0.10847668 0.009851146
000060 50 19 ae 3d 73 c1 9b 3d 3f 65 60 bc b0 45 ac 3d
       0.08500922 0.07605257 -0.013696014 0.08411729
000070 0a 4d 3b bd ba 18 d8 3a 1f e2 df 3b 73 d8 87 bd
       -0.045727767 0.0016486861 0.0068323757 -0.06633081
000080 75 81 90 bc 5d 94 d8 bd 36 4b af 3d f4 3f 4b 3c
       -0.017639855 -0.10575173 0.08559267 0.012405384
000090 57 88 c3 3d 51 b6 8e bd eb 9d 5c 3c b3 88 77 3d
       0.09547489 -0.06968368 0.013465385 0.0604331
0000a0 9f 32 02 3d 9d 0a 2d 3b 93 39 f8 3d a8 dc e6 bb
       0.031786557 0.002640403 0.121203564 -0.0070453472
0000b0 70 5e 08 be c2 83 52 be fd a2 10 3e f9 b0 d1 3b
       -0.13317275 -0.20558074 0.14124675 0.0063992706
0000c0 52 ab 3f bd 3f fc 06 39 49 62 55 bd ff 9c fb 3d
       -0.046794243 0.00012873205 -0.052095685 0.12285804
0000d0 80 a3 53 bc 55 0c 02 bc 0f ca 25 3d 31 0d 90 3c
       -0.012917399 -0.0079375105 0.0404759 0.017584415
0000e0 6a 89 a7 bd 07 06 99 ba 30 cc 55 3d 8d 15 5e 3d
       -0.081805065 -0.001167477 0.05219668 0.05421977
0000f0 b7 64 a8 bc 52 b0 dd 3c 6d b1 9b 3c 84 60 04 be
       -0.020555837 0.027061615 0.019005502 -0.12927443
000100 73 2a 0c bc 7d 98 f6 bc a6 18 c5 3d 6c a4 31 3c
       -0.008555043 -0.030102009 0.09623842 0.010842424
000110 a5 2e df bc f9 c2 b1 bc 5e fe 5c bb 22 b0 98 bd
       -0.027243922 -0.021699416 -0.003372095 -0.0745547
000120 a7 fc 23 bd ee dc b0 3b 6d 0e 27 3d 17 5e 82 bd
       -0.04003587 0.0053974306 0.040785242 -0.063656025
000130 3c b9 0d bd 6c 40 89 bb 5e cf ba bb ef c1 c9 3d
       -0.03460048 -0.004188588 -0.0057009896 0.09851443
000140 2e a6 db bc fa 76 00 bd 9c 4f 25 bd 2b a9 1e be
       -0.02681264 -0.031363465 -0.040359125 -0.1549422
000150 f9 66 22 3c 49 81 01 bd cc 0a a5 3d cc 1a d8 3d
       0.009912246 -0.031617437 0.080587 0.10551986
000160 86 0f 1f be 55 3d 84 bd 5a 54 3d be 4f 64 75 bd
       -0.15533265 -0.06457011 -0.18489209 -0.059910115
000170 a9 5b 5c bd 40 67 1f bc ae 02 09 bd 97 c7 19 3d
       -0.05379835 -0.009729207 -0.03344982 0.03754386
000180 e4 c7 ca 3c 6b 2d 7a 3b 2d 71 fa 3d 25 e9 fc bd
       0.024753518 0.0038174044 0.12228618 -0.12349156
000190 be ad 4f 3d 74 2e 26 bc 9b a0 88 3d 73 ed 1a 3e
       0.050702803 -0.010142911 0.06671258 0.15129642
0001a0 e6 09 32 3d d5 1b fb bd dc 17 75 3d 9b 5b 03 bd
       0.04346647 -0.12261168 0.059837207 -0.032069784
0001b0 fc e2 22 be ca 1d fb bb 5c 0d 02 be ac 0c 0b bd
       -0.159069 -0.0076634632 -0.12700409 -0.03394763
0001c0 d7 6e 50 3c bb 46 1a bc 23 29 22 3d 6a bb ac bd
       0.012721739 -0.0094162775 0.039590012 -0.08434184
0001d0 3a 75 3d 3d a9 65 3d 3e 6b f1 bb b8 fe 33 9e bc
       0.046254374 0.18495812 -8.9618225e-05 -0.019311901
0001e0 46 6c b8 bd 8d d1 b0 bd 7b 10 a2 bc e6 49 22 bd
       -0.090050265 -0.08633719 -0.01978325 -0.039621256
0001f0 79 46 c9 3d ba ee 8f bb 29 48 20 bd 8e 31 a9 bd
       0.09827895 -0.004392472 -0.039131317 -0.08261405
000200 80 b5 96 3c 1e a3 85 be 2e 58 12 bc 5e f0 fd bd
       0.018397093 -0.2610101 -0.0089321565 -0.12399362
000210 71 a6 f5 3d 9b 1b 68 3d 14 0e ba bd 6a a4 74 bd
       0.11994637 0.05666695 -0.090847164 -0.05972711
000220 92 49 88 bd 7b 72 ac bd cd 1b 7c 3e 66 f8 17 3d
       -0.066546574 -0.08420273 0.2461998 0.037102126
000230 0d b6 46 bc 3a a8 2a 3c 62 90 ac 3d f7 eb b7 3d
       -0.012128365 0.010416085 0.08425976 0.089805536
000240 d3 5f 90 3d 94 36 61 3d 47 df 48 3d 27 9d ef 3d
       0.07049527 0.05498369 0.04904106 0.11699896
000250 f9 e0 e1 bc 24 12 c8 3d d7 24 94 bd 3c 21 5f bc
       -0.027573096 0.09769085 -0.07233589 -0.013618764
000260 2d aa 62 3c 47 db 1f bd f0 c9 3d be f8 da 29 3a
       0.013834518 -0.03902748 -0.18534064 0.0006479467
000270 c0 6b a8 bd a3 ec 17 3e 87 83 1b be fd fd 83 3d
       -0.08223677 0.14836363 -0.15186892 0.06444929
000280 58 83 c0 bc 0f 97 2d bd bb b1 0e bc 5f 04 a9 3d
       -0.02350013 -0.04238039 -0.008709366 0.08252787
000290 01 fa 51 3d 01 8d 16 3e 8b c6 ab bd 23 f0 1d bd
       0.051263813 0.14702226 -0.083874784 -0.03855909
0002a0 0c 6e 88 3d f1 3d 0f 3e 91 6f 7b 3d 38 dd 22 3d
       0.06661615 0.13988473 0.061385695 0.039761752
0002b0 2a 06 85 bb b8 90 59 3b 33 65 60 3c 22 10 c0 bc
       -0.0040595727 0.0033197831 0.013696003 -0.023445193
0002c0 65 88 11 3e 6a 48 a1 bd 4c c8 27 be 1c 28 4f bd
       0.14212187 -0.0787514 -0.16385001 -0.05057536
0002d0 d8 6e e3 3b 22 84 bd 3c e3 60 d8 bd 5a a0 04 bd
       0.006940704 0.023134295 -0.10565355 -0.032379486
0002e0 49 5d 38 3d 26 3f ea 3c 4a 23 ba bd 38 bb d6 bd
       0.04501084 0.028594565 -0.09088762 -0.10484928
0002f0 dc 3d 49 3d c7 94 cf 3d fe 4c 28 3c 03 8d 12 3e
       0.04913126 0.10135799 0.010272263 0.14311604
000300 57 e5 8f 3d 20 d8 1d 3d bb 3e cd ba ea c9 12 3e
       0.07026165 0.03853619 -0.0015658954 0.14334837
000310 a7 76 49 bd a2 09 44 bb 25 d7 3d 3d a2 16 84 3c
       -0.04918542 -0.0029912968 0.046347756 0.016124073
000320 94 1f 83 3d cd 3a 20 3c 6e ef dd 3c 87 f9 ab bc
       0.064025074 0.009779644 0.027091708 -0.020993007
000330 79 fc 86 3d 36 1c 4b 3b e0 de 30 bd 55 03 66 3d
       0.06591124 0.0030992157 -0.0431813 0.05615552
000340 cf 72 a1 3b 19 5b ed 3d ea a1 11 3e 8a 44 28 3d
       0.0049270163 0.11589641 0.14221922 0.04108099
000350 6e 67 48 3c f8 90 86 bd 6f df a1 3d 4b bc 55 3d
       0.012231691 -0.06570619 0.07903945 0.052181523
000360 b2 eb bf 3d 86 dc 06 3c b9 25 86 3d ee a2 ec bc
       0.09371127 0.008231288 0.06550164 -0.028886285
000370 58 28 b9 3b 23 47 62 3d ba 5e 70 3d d7 49 a5 3c
       0.0056505613 0.055243623 0.05868409 0.020176811
000380 40 61 22 bd 17 8d 6b 3c ab e4 c2 bd 6c 8f b5 bc
       -0.039643526 0.0143769 -0.09516271 -0.022163115
000390 81 40 d6 3d 79 1e 8c 3d 43 14 7e 3d 0b 58 37 bc
       0.10461522 0.0684175 0.06203104 -0.011190425
0003a0 fc 55 e3 bb 8c 06 92 bc 4b 1a 47 bd 90 63 56 3d
       -0.0069377404 -0.017825387 -0.04860906 0.052341044
0003b0 c2 0a 21 3d b7 d3 3b 3d ae d7 c5 3d 11 e9 34 3c
       0.0393169 0.045856204 0.09660278 0.0110418955
0003c0 a7 c4 eb 3d 76 ab 1a be 1e 8f f4 3d 5d ed 9b bc
       0.11512118 -0.1510447 0.1194136 -0.019034082
0003d0 93 ed 07 be d2 5f 5e bd be cc a1 bc 08 47 5a bd
       -0.13274221 -0.0542906 -0.019750949 -0.053290397
0003e0 3c 25 84 3c 20 9e fb bc 9b ef 0d bc 36 2c 42 3d
       0.016131036 -0.030715048 -0.008663083 0.047405444
0003f0 5c 8a fa 3c 83 26 68 3d ce 95 cc bb 1e 18 a7 3d
       0.030583553 0.056677353 -0.006243444 0.08158897

fc2.bias f4 [150]
000000 cf 4f cf bb 7f 73 2c 3d 6e 86 ce 3d 8f 9d e7 bc
       -0.0063266526 0.042102333 0.10084234 -0.028273372
000010 ee fb d3 3d a5 cd 59 bd 6d c5 e4 3b f9 98 34 3d
       0.10350786 -0.053174634 0.006981543 0.0440912
000020 3a b9 62 bd 99 6d 2b 3d 2a b3 6f 3d ba a7 c2 bd
       -0.055352427 0.041852567 0.058520474 -0.095046476
000030 70 7e 37 3d ac 29 8f bb 7b 22 27 bb 8c ab e6 bc
       0.044798315 -0.0043689813 -0.002550273 -0.028157972
000040 c3 e8 7b 3d 94 36 32 bc 7f dd c7 3c e5 f3 1a bc
       0.061501276 -0.01087727 0.02439761 -0.009457563
000050 25 ce c6 bc 8b a1 ab bc 80 67 8e bb 3b e3 9f 3d
       -0.02426822 -0.020951053 -0.0043458343 0.07807013
000060 7d 85 2f 3d fb ae 17 3d c4 f3 5e 3d b1 02 33 3d
       0.042851914 0.03703211 0.05443169 0.04370374
000070 63 8f 71 3d 0a 98 2e 3d 86 5d b0 bd 37 37 83 3d
       0.058974635 0.042625464 -0.08611588 0.06407016
000080 c6 42 40 bd 99 8f 9a bd 0f 91 e0 3c 7f 27 bb bc
       -0.04693868 -0.0754692 0.02741292 -0.022845982
000090 d8 a9 0d 3d ed 8b f4 bc 62 6c 16 bd cb d0 1c bd
       0.034585804 -0.029851878 -0.036724456 -0.038285058
0000a0 2c f2 f9 3d 17 71 32 bd d0 b1 0e 3d 42 83 a0 bd
       0.12204394 -0.043564882 0.034837544 -0.078375354
0000b0 53 75 a7 3a cc ec 6b 3d 77 84 0b 3d 00 27 a4 3c
       0.0012776054 0.057598874 0.034061875 0.020038128
0000c0 3d ef 3d 3d 48 a0 a3 3d fb 69 81 bd d4 9b 94 bd
       0.046370734 0.079895556 -0.06319042 -0.07256284
0000d0 76 d0 5f ba 21 bc d8 3b 28 c0 96 bc fb a1 ea 3c
       -0.0008537838 0.0066142236 -0.018402174 0.028641691
0000e0 0b f5 5b 3d 15 43 56 3d 39 6d 3c 3d 3e 58 68 bd
       0.053700488 0.05231007 0.0460026 -0.05672478
0000f0 f3 09 04 bc ad 64 05 3d 39 6e 04 3c ac 76 92 3d
       -0.008059013 0.032566715 0.00808292 0.07151541
000100 f7 7d 69 bb 5f ff 75 3d 52 5e 32 bc 0a 4c 5f 3d
       -0.003562806 0.060057994 -0.0108867455 0.054515876
000110 33 6e 8a bc c2 e3 96 3d 0d a8 18 3d ac bb 0a 3e
       -0.01689825 0.0736766 0.03726964 0.13548154
000120 3e c5 df 3c 51 3b 9a 3d 63 09 fe bc cb bc 3c 3d
       0.027315732 0.07530845 -0.031010335 0.046078485
000130 66 15 00 bd fd 8f 8f 3d 75 c9 5d bd f5 43 54 bc
       -0.031270407 0.070098855 -0.054147203 -0.012955655
000140 73 61 5a bc 7a de ed bd 2c b9 4a bd d1 af ea 3c
       -0.013328898 -0.116147 -0.049493 0.028648289
000150 73 05 6e bc 5c 55 92 3d df 12 13 bb 5a 63 29 3d
       -0.014527666 0.07145187 -0.0022441668 0.041354515
000160 66 f1 c8 bd a5 d5 39 3a eb 9f 05 bd dc fb bc bc
       -0.09811668 0.00070890255 -0.032623213 -0.023069315
000170 1a 52 fb ba 93 13 96 bc cd a2 f6 bb fc ad d4 3b
       -0.0019174248 -0.01831988 -0.0075267316 0.006490467
000180 9b 92 14 bd 13 7f 82 bd 7d 2a 37 bd ba 44 d8 bc
       -0.036272626 -0.06371894 -0.044718254 -0.026399959
000190 49 e3 e7 3d 72 b8 8c bc 9c c4 0a 3e bd 5b 8d 3d
       0.11322648 -0.017177794 0.13551563 0.06902263
0001a0 eb 79 91 3d 73 bd 21 bd c0 4d 1e bd 31 f4 24 3d
       0.07103332 -0.039487313 -0.038648367 0.04027194
0001b0 ab 5f dc bc 85 50 6f bc 37 3e 9b 3d ba 76 89 3d
       -0.026901087 -0.0146066 0.07580226 0.067120984
0001c0 2b 25 c0 bc 8d a2 09 3d f0 4d 4c 3d 65 3d 36 bc
       -0.023455223 0.033602286 0.049879014 -0.011123036
0001d0 34 83 24 3d 97 95 e0 bc 18 aa d3 3b 57 99 85 3d
       0.040164188 -0.02741508 0.0064594857 0.06523388
0001e0 bd c1 a5 bc 53 86 92 3d bc 20 14 bd 23 2c 89 bb
       -0.020233983 0.071545266 -0.03616403 -0.0041861697
0001f0 87 21 6b 3c 6a f8 70 3d b5 2e 9c 3b 66 0e 64 3d
       0.014351255 0.058830656 0.00476631 0.055677794
000200 4b 10 c4 bb 73 d9 23 3b cc 12 c9 3c 99 5b 68 3b
       -0.0059833876 0.0025001436 0.024545096 0.0035454987
000210 77 1c 87 3d 0b 48 8a bd ab 22 d5 3c 02 35 41 3d
       0.06597226 -0.06752022 0.026017508 0.047169693
000220 89 25 53 3d 9c e5 39 3d 8a 32 4e 3d 8b e1 46 bb
       0.05154947 0.04538499 0.050341167 -0.0030346836
000230 e9 3e 8c 3d e1 07 69 bd c2 30 82 ba 7b 99 38 bd
       0.06847937 -0.05689228 -0.0009932744 -0.045068245
000240 14 fa 9d bc 5d 8f 4f 3d 63 da 01 3d 9c d8 d6 bc
       -0.019284286 0.05067383 0.03170241 -0.026226334
000250 d3 56 cc 3d 22 a4 d3 bc
       0.09977498 -0.0258351

fc3.weight f4 [2, 150]
000000 96 b7 e3 3d a9 3a ee 3c b4 8e f3 bd 3c 69 71 bd
       0.111190006 0.029080706 -0.11892453 -0.05893825
000010 c0 de 94 3d 02 6a 1f 3e 06 ea 0e 3e 10 b3 27 3c
       0.07269049 0.15567783 0.1395646 0.010235563
000020 45 f1 03 be 04 2f ae 3c 8a b9 87 bd b2 8f 4e 3e
       -0.12885006 0.021262653 -0.06627186 0.20172003
000030 4f ef 12 3e f5 88 45 3d 6f 27 a0 3d 1a f0 db bd
       0.14349101 0.048226316 0.07820021 -0.10739155
000040 d3 2d ed 3d 6b 6b 58 bd 4d 80 22 ba e4 1c 28 bd
       0.11581006 -0.052836817 -0.0006198928 -0.041043177
000050 97 69 a1 bd 0f ed 68 be 66 a8 d3 3d 89 60 03 be
       -0.07881468 -0.2274668 0.10334854 -0.12829794
000060 62 6a 42 3e 60 83 50 3d fc fa 3e 3d fd 9e 90 3d
       0.18985894 0.05090654 0.046626076 0.070615746
000070 08 7c 63 3c 97 e1 90 3d 4a 99 8a 3d 7e 8a 04 3e
       0.013884552 0.07074278 0.06767519 0.12943456
000080 49 ed b5 bd 05 d6 63 3e 95 4c d0 bd 19 2d 31 3c
       -0.08883149 0.2224961 -0.10170857 0.010813975
000090 07 c4 b1 bd 71 8e 42 3e f8 07 94 bd 9a 21 38 be
       -0.086799674 0.1899965 -0.072280824 -0.17981568
0000a0 c9 0c e4 3d 73 0e 06 be 47 72 40 3d 6d 1d 87 bd
       0.11135251 -0.1309145 0.046983983 -0.065974094
0000b0 e4 70 0b 3c 79 39 d5 bd 98 e7 32 bd e3 aa 99 3d
       0.008510802 -0.10411353 -0.043677896 0.07503297
0000c0 53 6e 15 3e be 4f 18 3e 3a a2 6d bd bf 0d b5 3d
       0.14592867 0.14874169 -0.05801604 0.088405125
0000d0 a1 02 39 3d cc 8a 0a be 77 cf 91 3c 23 89 f5 bb
       0.045168523 -0.1352951 0.017799122 -0.0074931546
0000e0 79 ef 12 3d ea ae 80 3d 76 71 10 3e f3 ef 01 be
       0.03587291 0.06283362 0.14105782 -0.1268919
0000f0 86 e9 fe 3d 05 0e c7 bd 32 7e 7b 3d 65 63 1a bc
       0.12446885 -0.09719471 0.061399646 -0.009423112
000100 86 e0 80 3e 2b 51 d2 bd ee 6d 6c 3d 2a 0a fc 3b
       0.25171298 -0.10269388 0.057722025 0.0076916413
000110 e4 70 3d 3d 66 19 27 bd 53 f5 c5 3d 5a 6b 6c 3d
       0.04625024 -0.040795706 0.096659325 0.057719566
000120 ec 12 9e 3d 14 d1 58 3d 30 a8 54 3b c9 e5 17 3e
       0.07718453 0.052933767 0.003244888 0.1483375
000130 58 25 0d 3e d8 8e 96 bd 39 8d 6e 3d f9 60 e1 3d
       0.13783777 -0.07351464 0.05824015 0.11004824
000140 80 bb f3 3c 49 ef 58 3e e7 39 07 be 64 f7 5d 3d
       0.029752493 0.2118503 -0.13205682 0.05419101
000150 a8 15 a4 bd 51 2b 2c 3c 3c 0b df bd 52 63 e0 3d
       -0.08011943 0.010508374 -0.10890815 0.10956444
000160 d2 4f d4 3e c3 2c 55 3d 9a 84 24 3e d3 97 8d bd
       0.41467148 0.05204464 0.16066208 -0.06913724
000170 4b 70 12 3d 6e a7 49 3e 63 51 ea bd 4c 6a 08 3e
       0.035751622 0.19692776 -0.114413045 0.13321799
000180 95 b0 20 be 44 2f be bc 62 19 b6 bd 3a 43 61 bd
       -0.1569236 -0.023215897 -0.0889156 -0.054995753
000190 8d 8d 56 3d 53 f6 4d 3e e9 ce 4a 3c ff 84 9d bd
       0.052381087 0.20113496 0.012378433 -0.076913826
0001a0 51 99 6c 3d b8 b4 05 3b 6b 8b 42 3d 30 97 b4 bc
       0.0577634 0.0020401906 0.04749624 -0.022044748
0001b0 79 ec 2a 3d 96 60 22 3e ec 85 48 bc 15 8d 22 3d
       0.041729424 0.15857157 -0.012238961 0.039685328
0001c0 cc 03 88 bd 73 fe 31 3d c3 1a 0d be ce 4d ef 3d
       -0.06641349 0.043455552 -0.1377974 0.11684762
0001d0 c3 dd 76 3c cd e3 e7 3c e5 c7 b8 bd fe c7 35 3d
       0.015067521 0.028306866 -0.09022502 0.04438018
0001e0 75 46 b7 bd 0c a5 43 3d 4b 01 8c 3e 24 24 7a 3d
       -0.089489855 0.047764823 0.27344736 0.061069623
0001f0 75 eb cf 3c 1e 54 0e 3d d7 a5 04 bd 80 ad d9 3d
       0.02538083 0.03474819 -0.03238472 0.106287956
000200 f9 48 f2 bd 8f 1f 2e 3d 5a d1 c4 bd 56 47 46 bd
       -0.11830325 0.042510565 -0.09610243 -0.048407875
000210 e5 32 9b bd 10 62 d9 3e 2f 0e 5d 3d 32 36 03 bd
       -0.07578067 0.42457628 0.053968605 -0.032034107
000220 f7 fd f0 bd 8d bc 4a be f0 6d dd 3d d8 14 83 bd
       -0.1176719 -0.19798489 0.108119845 -0.0640046
000230 31 11 87 3d 4c 9a d5 3d f4 ba 83 bd 42 69 29 3d
       0.06595076 0.104298204 -0.06432143 0.041360147
000240 00 83 21 be e9 1b 07 3d 3a 55 93 bd 77 e1 b7 3d
       -0.15772629 0.0329856 -0.0719399 0.08978551
000250 59 8a cf 3c e3 5c 9b 3b 22 fa c6 3d 3b 0a d9 bc
       0.025334524 0.0047412976 0.09715678 -0.026494136
000260 0e 73 4b 3e 46 59 a5 3b ca d2 62 bd fe e8 03 3d
       0.19868109 0.0050460426 -0.055376805 0.03220462
000270 d3 b7 aa bd 2f 06 1e be 17 90 38 bc 59 85 a1 3e
       -0.08335843 -0.15432046 -0.011264822 0.3154705
000280 56 6b 39 3c 4d 57 69 bc 67 ee 83 bd 8f 40 11 3e
       0.011317095 -0.014242006 -0.06441956 0.14184783
000290 35 c1 38 3c 59 7e 81 3e e3 1b 08 be f1 ab a3 3d
       0.011276533 0.25291708 -0.13291888 0.079917796
0002a0 d0 e6 a9 bd 2c cb b8 bc 20 65 90 3d 8e 1e b4 3e
       -0.08295977 -0.022557817 0.07050538 0.3517956
0002b0 e0 75 a7 bd a3 73 c4 3e ea 3a 69 be 89 52 9b bd
       -0.0817678 0.38369474 -0.2277638 -0.07584102
0002c0 7d c7 ae bd 6a f0 44 bd d9 3a b2 bb 57 3f b1 3e
       -0.08534143 -0.04808084 -0.005439144 0.34618637
0002d0 6c c2 aa bd 8f 43 aa bd b3 c2 43 bd 27 09 85 3d
       -0.08337864 -0.08313667 -0.0477931 0.06495886
0002e0 ce c6 51 3e 98 b6 19 3c b9 84 4d 3d 2a 48 ea 3a
       0.20485994 0.009381913 0.050175402 0.001787429
0002f0 68 34 3c 3e 87 03 01 3c 4f e4 35 bc 9b d0 d3 3b
       0.18379366 0.007874376 -0.011101796 0.0064640767
000300 96 61 82 3e 69 c4 7c bd 75 38 83 3e 0e f5 51 bd
       0.25465077 -0.06171075 0.2562901 -0.051259093
000310 9c a6 98 bd 7b 66 1e 3d 26 92 6d bd 9b 29 2d 3c
       -0.07453653 0.03867195 -0.058000706 0.010569002
000320 e3 fc 95 3d 52 b4 c1 3c d0 73 84 bd 3d 7e 0b 3e
       0.07323625 0.023645554 -0.06467402 0.13622375
000330 5c d8 11 be 3d 66 a4 3d 50 02 a8 bd 9e b1 bb bc
       -0.14242691 0.08027313 -0.08203566 -0.022911843
000340 c5 cb c3 bd a7 c0 d0 3d 5e 6c b3 bd 06 b4 39 3e
       -0.0956035 0.101929955 -0.08760904 0.1813508
000350 1d 18 67 3c 73 0a 23 be ab c2 33 be 0c d6 a1 bd
       0.01410487 -0.15921955 -0.17554729 -0.07902154
000360 11 da 25 3d 5d eb da 3d bc 50 a7 3d 5a 04 dd bd
       0.040491167 0.10689423 0.08169696 -0.107918456
000370 ba e7 db 3c 93 cd 3c bd ba 4e 15 3c e1 f8 10 be
       0.026843894 -0.04609449 0.009113008 -0.1415744
000380 ab 23 21 be a3 d2 30 3c 3e d2 de bd 69 34 b9 3d
       -0.15736263 0.010792407 -0.10879944 0.090431996
000390 a2 76 ee bd 11 84 a6 bd a3 53 a5 bc 41 96 2e 3e
       -0.11643721 -0.081306584 -0.020181483 0.17049505
0003a0 10 2f 1d bd 70 9b 67 3e 27 1b b5 3d 27 3c 1c 3e
       -0.03837496 0.22617888 0.088430695 0.15257321
0003b0 1a 11 a7 3e 11 04 a7 bd bc cf de 3d 9e c7 5d bd
       0.32630235 -0.081550725 0.10879466 -0.054145448
0003c0 0f 68 f3 3c c7 2e f8 3b 04 a8 db bc 0b 59 9f 3e
       0.029712705 0.0075739357 -0.026813515 0.31122622
0003d0 57 d7 2c 3a ea af 31 bd 00 12 ae bd e2 20 64 3e
       0.00065933674 -0.043380655 -0.08499527 0.22278169
0003e0 8d 1d c1 bd bc ff a6 bc d9 ba 35 bd 19 8f 47 bd
       -0.094294645 -0.020385616 -0.044367645 -0.048720453
0003f0 f5 52 1d 3e 6a c8 bf bc 40 1b 8e 3e e8 ec c2 bd
       0.15363677 -0.023410995 0.27755165 -0.095178425

fc3.bias f4 [2]
000000 a0 91 63 bd 39 4f 98 3d
       -0.0555588 0.074369855
