maddpg/models/critic_params_0.pth (torch_old, 164609 bytes, 5 tensors)

fcs1.weight f4 [200, 52]
-0.043689143 0.0653961 0.045995843 -0.14600761 0.17029126 -0.33430767 -0.061143238 -0.14660297
-0.025740996 -0.03870396 0.094691135 -0.1984095 0.16129765 -0.5619868 0.09623018 -0.1926275
-0.1391565 -0.064922005 -0.056008436 0.17011215 0.087915204 -0.3073389 -0.06708442 0.121914595
-0.0790414 -0.10525712 -0.040653475 0.026344236 -0.093333565 -0.43313488 -0.04300533 -0.01849756
-0.046776924 -0.0912949 0.0075861705 0.23990735 -0.24233736 -0.48437122 -0.0035877025 0.19857633
-0.22155342 -0.19412622 -0.028978113 -0.14259197 -0.037045084 -0.27355143 0.016846545 -0.13420983
0.27875262 0.78604287 0.4734232 -0.36640224 -0.022395346 -0.36368182 -0.056809623 -0.30865213
0.26990423 -0.17212133 0.013108984 -0.3532066 0.031142892 -0.1705096 -0.05023339 -0.15295884
0.2059773 -0.29382288 0.054357488 -0.12809049 0.048423007 -0.253704 0.012864155 -0.27572802
-0.20567082 -0.006943784 0.033180386 -0.27168298 0.041501656 -0.006100749 0.068269424 -0.0629107
-0.25455484 -0.06706766 0.05666129 -0.05329478 -0.04045113 0.07460343 0.07190671 -0.044767622
-0.13789646 -0.27260888 0.04879001 -0.029769203 0.12095076 0.06505756 -0.0060003037 0.34134096
0.112763755 0.049342103 0.06256058 0.33150297 0.47887495 0.8271864 1.5603461 -0.35888562
0.044756997 -0.20142859 0.039273288 0.21143737 -0.010012874 0.26732585 -0.0387344 0.15951917
0.05855461 -0.26579833 -0.05934226 -0.027575765 0.08157266 0.15774032 0.047614504 -0.12256242
0.08249735 -0.25412518 0.0052006333 -0.16016331 0.2801009 -0.38734272 -0.0033500055 -0.09059491
-0.1106146 1.0053655 0.0054359124 0.06644925 0.08055575 0.29310018 -0.014391556 0.022466624
0.058811884 0.79890597 -0.025731968 -0.06907328 -0.10948712 0.19885918 -0.0023690923 -0.14095868
0.07231047 0.45706058 -0.004210917 -0.37266082 -0.32853174 -0.45734197 0.0074040988 -0.43661347
0.21579495 -0.44131482 -0.33424032 -0.2061818 0.15176511 -0.18104388 -0.028561598 0.36225817
0.031333003 -0.27141383 0.06765588 0.3455945 0.14530408 -0.22917432 0.115147315 -0.12560982
-0.15505013 -0.119427465 0.10080187 -0.113426924 0.057703834 -0.35444188 -0.002555188 0.08956485
-0.12001149 -0.07263502 0.015564471 0.0602244 0.17010859 0.6680715 0.041456312 0.03509478
-0.03949997 -0.18564086 0.026610395 0.042581264 0.037750013 0.36359936 -0.030901447 -0.24549803
0.042139225 -0.15018503 -0.051143754 -0.20134544 0.055387374 0.46518168 0.012184671 -0.22409724
0.18792348 -0.0018563623 0.09782057 -0.1927547 0.30483374 -0.8061522 -0.26060954 0.5407861
0.039931357 -0.2486914 0.0626886 -0.039618377 -0.12508483 -0.25954995 0.033399466 0.024573542
0.07234395 -0.29870826 0.08540433 -0.2713602 0.031117424 -0.32887962 0.13248138 -0.25420874
0.004152657 -0.24485062 0.021327937 0.11617808 0.065376535 -0.76521945 -0.06418903 0.07304164
-0.07121122 0.5869299 0.047516454 -0.06050072 0.047959667 -0.23367783 0.07425166 -0.09081667
-0.008100105 0.5513023 -0.027243888 0.119821995 0.0301579 -0.27647054 0.0046649836 0.07435445
-0.014928753 0.40229648 -0.010988764 -0.12789948 -0.052007418 -0.7860828 0.027331695 -0.15192159
00000000: 63f3 32bd 64ee 853d 2366 3c3d 0583 15be
00000010: d560 2e3e 602a abbe 5571 7abd 171f 16be
00000020: c8de d2bc 0b88 1ebd 6ded c13d dc2b 4bbe
00000030: 362b 253e 5ede 0fbf 5414 c53d 2540 45be
00000040: 0b7f 0ebe d4f5 84bd 1a69 65bd e131 2e3e
00000050: e30c b43d 865b 9dbe 8e63 89bd 5cae f93d
00000060: 75e0 a1bd 0c91 d7bd 4284 26bd decf d73c
00000070: ab25 bfbd dbc3 ddbe 5b26 30bd 3288 97bc
00000080: 2999 3fbd d2f8 babd 6995 f83b 46aa 753e
00000090: 4927 78be 81ff f7be a91f 6bbb 9857 4b3e
000000a0: e6de 62be 06c9 46be 8263 edbc a103 12be
000000b0: 96bc 17bd ef0e 8cbe c401 8a3c 4d6e 09be
000000c0: aab8 8e3e 1b3a 493f 8764 f23e 1399 bbbe
000000d0: 7276 b7bc 8134 babe 35b1 68bd a707 9ebe
000000e0: e330 8a3e 9340 30be 10c7 563c 7fd7 b4be
000000f0: 611f ff3c 129a 2ebe 87c1 4dbd 3ea1 1cbe
00000100: b7eb 523e f46f 96be f5a5 5e3d 272a 03be
00000110: 3457 463d 7ee5 81be 2dc4 523c 392c 8dbe
00000120: 5f9b 52be af88 e3bb 28e8 073d 081a 8bbe
00000130: a4fd 293d cbe8 c7bb d7d0 8b3d 53d7 80bd
00000140: 0355 82be c55a 89bd ab15 683d a14b 5abd
00000150: 16b0 25bd afc9 983d d343 933d 415e 37bd
00000160: bb34 0dbe 6493 8bbe 09d8 473d 8bde f3bc
00000170: 08b5 f73d e63c 853d 329e c4bb 3ec4 ae3e
00000180: aff0 e63d f21a 4a3d c31f 803d c2ba a93e
00000190: 192f f53e 7dc2 533f 6cb9 c73f dbbf b7be
000001a0: 1d53 373d 4c43 4ebe 07dd 203d 0a83 583e
000001b0: 0a0d 24bc efde 883e f6a7 1ebd fe58 233e
000001c0: f5d6 6f3d b816 88be df10 73bd 92e6 e1bc
000001d0: 910f a73d ae86 213e 6d07 433d 0202 fbbd
000001e0: 5ff4 a83d b21c 82be 136a aa3b da01 24be
000001f0: 6369 8f3e c951 c6be c48b 5bbb d389 b9bd
00000200: e889 e2bd d1af 803f bd1f b23b 8b16 883d
00000210: 6afa a43d 3a11 963e 90ca 6bbc ed0b b83c
00000220: bbe4 703d 1a85 4c3f d9cb d2bc 4b76 8dbd
00000230: c83a e0bd bea1 4b3e c642 1bbb 7957 10be
00000240: 8317 943d d803 ea3e bbfb 89bb 66cd bebe
00000250: 5035 a8be ba28 eabe 159e f23b cd8b dfbe
00000260: 5af9 5c3e 04f4 e1be 8c21 abbe 5221 53be
00000270: 5068 1b3e 9163 39be 03fa e9bc e779 b93e
00000280: 0957 003d c1f6 8abe 2a8f 8a3d c3f1 b03e
00000290: 98ca 143e acac 6abe 5bd2 eb3d dc9f 00be
000002a0: 76c5 1ebe 6396 f4bd 3671 ce3d 604c e8bd
000002b0: db5a 6c3d 6879 b5be f174 27bb c76d b73d
000002c0: 96c8 f5bd abc1 94bd 1f02 7f3c dcad 763d
000002d0: f230 2e3e bc06 2b3f 18ce 293d 8bbf 0f3d
000002e0: b8ca 21bd a318 3ebe 0bfe d93c b169 2e3d
000002f0: c29f 1a3d b229 ba3e 0825 fdbc d663 7bbe
00000300: 2e9a 2c3d 1bca 19be 1d7c 51bd 802d 4ebe
00000310: dfdd 623d 4b2c ee3e 37a2 473c bf79 65be
00000320: 036f 403e 2f51 f3ba 2756 c83d 7d61 45be
00000330: 2b13 9c3e fe5f 4ebf 9d6e 85be f570 0a3f
00000340: 108f 233d f5a8 7ebe e162 803d e146 22bd
00000350: 3d16 00be bbe3 84be e1cd 083d 744e c93c
00000360: 1129 943d 4af0 98be 77e8 ae3d b9ef 8abe
00000370: f8e9 fe3c e962 a8be 33a9 073e a627 82be
00000380: 0313 883b 1fba 7abe edb7 ae3c c6ee ed3d
00000390: 22e4 853d 6ce5 43bf 8a75 83bd db96 953d
000003a0: 30d7 91bd 0a41 163f 9da0 423d 9acf 77bd
000003b0: 5b71 443d 3e49 6fbe 4111 983d 17fe b9bd
000003c0: 4eb6 04bc 2622 0d3f 932e dfbc 3c65 f53d
000003d0: b30d f73c 8c8d 8dbe b8dc 983b 2547 983d
000003e0: ba97 74bc cef9 cd3e 380a 34bc 15f8 02be
000003f0: bb05 55bd b93c 49bf b8e6 df3c 5591 1bbe

fcs1.bias f4 [200]
-0.28618595 -0.25064242 0.3048683 0.04638548 0.014056434 -0.17056361 -0.16824774 0.10982707
-0.023047497 -0.3629095 0.3313352 -0.34469447 0.051757593 0.20739578 0.048014943 -0.0052573914
-0.36824954 -0.022049168 -0.25590676 -0.09880033 0.17978616 0.033154093 -0.3041208 -0.13954645
0.0028883324 -0.19009788 -0.19236203 -0.4418465 -0.3389849 -0.04851142 0.23895563 -0.14339909
-0.016537244 0.040145315 -0.6154856 0.49772462 0.14193286 -0.026295036 -0.36436516 -0.4161836
0.001603676 0.12639357 0.15741809 -0.17615835 -0.34232956 -0.076423876 -0.17898993 -0.25590378
-0.03621491 0.26095966 0.7000902 0.50292885 -0.097483985 -0.08887416 -0.12454122 -0.038071755
0.009903909 -0.10048267 -0.10432906 -0.16965227 -0.27191865 0.08715213 -0.2321233 0.600612
-0.19118309 -0.40266472 -0.20254983 0.17729633 -0.2161468 0.45594856 -0.11600183 0.055125546
-0.2791901 0.17842206 0.033647854 -0.29188535 -0.12255924 -0.011409267 -0.2092185 -0.1551836
-0.18814509 0.35716352 -0.606172 -0.2611479 -0.08886834 0.005615005 0.19997713 -0.19489059
0.17482173 -0.18329337 0.2102565 -0.13710853 0.058392067 -0.30340013 -0.18630132 -0.27478677
-0.6457637 -0.10207767 0.1113203 -0.4287057 0.23554073 -0.34053543 -0.16327955 -0.13567136
-0.02478978 -0.2742571 0.094549656 -0.10028911 -0.0964418 0.04846955 -0.12200067 -0.22483926
-0.31279567 -0.262519 -0.15684964 -0.11249134 -0.064989425 -0.1594898 -0.37296087 -0.14150941
0.26152262 -0.2570545 0.40808 -0.039281808 -0.37400842 -0.30782267 -0.33494267 -0.49647182
-0.053315107 0.29120505 0.20981088 -0.33202812 -0.3870674 0.038522433 -0.47392178 0.16732451
-0.56596667 0.5242224 -0.30664992 -0.18998657 -0.3430409 -0.01581107 -0.042645216 -0.23521458
-0.39509264 0.33284432 -0.2691933 -0.21719354 -0.5086611 -0.3717807 -0.34730643 0.05093888
-0.4623211 0.47955784 -0.22865036 -0.39844006 0.49780586 -0.50236213 -0.012953212 0.07752823
0.29892236 -0.42981815 0.049439862 -0.20693173 -0.6005489 -0.32283366 -0.36917675 -0.04721286
-0.2611745 0.07248846 -0.093869284 -0.2552155 0.077607326 -0.049599137 -0.07524818 -0.06601297
-0.11266734 -0.44204193 -0.15623935 -0.33762878 0.3719151 -0.23145144 0.0019173071 -0.4140746
-0.109138355 0.101839215 -0.37661454 0.073526874 0.04845243 0.0024396717 -0.31427538 -0.099242665
-0.40153265 0.022440985 -0.5503009 -0.051110342 -0.2452581 0.05086734 -0.2499818 0.0010072388
00000000: f786 92be 3454 80be b317 9c3e b3fe 3d3d
00000010: f54c 663c 3aa8 2ebe 2349 2cbe 04ed e03d
00000020: 1bce bcbc 46cf b9be c4a4 a93e cb7b b0be
00000030: c5ff 533d 8f5f 543e 51ab 443d 3246 acbb
00000040: 348b bcbe 75a0 b4bc 3606 83be d457 cabd
00000050: dd19 383e 96cc 073d b9b5 9bbe 44e5 0ebe
00000060: 2d4a 3d3b 05a9 42be 8dfa 44be b439 e2be
00000070: 6e8f adbe e9b3 46bd c9b0 743e 36d7 12be
00000080: 1d79 87bc 6a6f 243d 7790 1dbf c3d5 fe3e
00000090: d956 113e b068 d7bc 128e babe 0416 d5be
000000a0: 7032 d23a 516d 013e 3532 213e db62 34be
000000b0: d245 afbe 1f84 9cbd 2349 37be d205 83be
000000c0: 1656 14bd 819c 853e 1d39 333f f2bf 003f
000000d0: afa5 c7bd a803 b6bd 780f ffbd 21f1 1bbd
000000e0: 0144 223c dcc9 cdbd 79aa d5bd 53b9 2dbe
000000f0: ec38 8bbe d17c b23d bbb1 6dbe b5c1 193f
00000100: 80c5 43be 122a cebe 3969 4fbe 2b8d 353e
00000110: 9655 5dbe 1772 e93e 5e92 edbd 53cb 613d
00000120: 01f2 8ebe 46b4 363e 55d2 093d ff71 95be
00000130: 5700 fbbd efed 3abc 603d 56be 73e8 1ebe
00000140: 1ba9 40be 23de b63e 172e 1bbf 2db5 85be
00000150: 9b00 b6bd 13fe b73b cec6 4c3e 6691 47be
00000160: 7804 333e 42b1 3bbe 7b4d 573e 2e66 0cbe
00000170: 852c 6f3d 4357 9bbe c6c5 3ebe dab0 8cbe
00000180: c550 25bf 190e d1bd e6fb e33d 507f dbbe
00000190: 9731 713e a95a aebe c132 27be 6fed 0abe
000001a0: f013 cbbc 6d6b 8cbe 40a3 c13d 6064 cdbd
000001b0: 4783 c5bd 0288 463d 7ddb f9bd 433c 66be
000001c0: c126 a0be e468 86be 319d 20be dc61 e6bd
000001d0: 2d19 85bd 4b51 23be baf4 bebe d8e7 10be
000001e0: 4be6 853e a69c 83be ddef d03e f6e5 20bd
000001f0: 087e bfbe ef9a 9dbe 9b7d abbe 8e31 febe
00000200: f160 5abd d418 953e aad8 563e 97ff a9be
00000210: b32d c6be b3c9 1d3d e0a5 f2be 1e57 2b3e
00000220: 31e3 10bf 7033 063f 3801 9dbe d78b 42be
00000230: 0fa3 afbe 3886 81bc c0ac 2ebd 17dc 70be
00000240: 9549 cabe 926a aa3e b4d3 89be fc67 5ebe
00000250: 9d37 02bf 0a5a bebe 26d2 b1be 49a5 503d
00000260: 5ab5 ecbe 9b88 f53e 5223 6abe 5600 ccbe
00000270: 69e0 fe3e ce9a 00bf b539 54bc 1fc7 9e3d
00000280: 5a0c 993e 2011 dcbe 7481 4a3d e9e5 53be
00000290: 93bd 19bf 744a a5be bc04 bdbe 4662 41bd
000002a0: aab8 85be d474 943d 8a3e c0bd 9bab 82be
000002b0: 97f0 9e3d 7728 4bbd b81b 9abd cf31 87bd
000002c0: 22be e6bd 5253 e2be 35fd 1fbe aedd acbe
000002d0: a86b be3e 9b01 6dbe 274e fb3a 9601 d4be
000002e0: ee83 dfbd 1491 d03d 9fd3 c0be 4295 963d
000002f0: 0e76 463d e6e2 1f3b b4e8 a0be bd3f cbbd
00000300: b095 cdbe 28d6 b73c 85e0 0cbf 1459 51bd
00000310: f024 7bbe 465a 503d 3bfb 7fbe 5305 843a

fc2.weight f4 [150, 200]
-0.121272996 -0.033730235 0.07532429 0.03921308 0.059758864 -0.069778524 -0.032040812 -0.062275402
0.0540106 -0.09691564 -0.00027334486 -0.15640312 -0.010347144 0.21055058 -0.2577597 0.21266289
0.1004678 -0.34040818 -0.26313117 0.0982039 0.09858043 -0.13380016 0.13857715 -0.15084201
-0.09434637 -0.00054921646 0.07212748 0.097570464 0.009776843 0.06878372 0.13291055 -0.038283482
-0.10818334 -0.08506736 0.20326842 0.047031753 0.0036292034 -0.03928125 -0.48156 -0.18586615
0.15909237 -0.1396436 0.38344994 -0.33450615 -0.035177384 0.1673592 -0.24863665 -0.9971066
0.023527049 0.2018198 0.17981435 0.1239099 0.25619084 -0.08790362 0.05886306 -0.0702333
0.11167058 -0.18675785 0.006297915 -0.18320878 0.11744815 0.15200159 0.09576071 0.25422636
-0.08978933 0.119951285 0.06873892 -0.12647572 0.20139001 0.22090283 -0.07816465 0.029202929
-0.17863606 0.08145033 0.022875013 -0.086077325 0.09310258 -0.14089575 0.021786973 0.052868325
0.124020964 -0.029961377 0.000639805 -0.26813132 0.18407561 -0.0068196175 -0.03317335 0.01704195
0.24227598 -0.048206367 0.018688215 -0.09839073 0.10306854 -0.12547398 0.0040112706 -0.093121804
0.067594334 -0.24529104 0.031459562 -0.5531058 -0.14563945 0.07058068 -0.058962993 0.002161545
-0.061727375 -0.09706942 0.08858194 -0.23496589 0.05778506 -0.13533495 0.016588977 -0.05617727
-0.070264086 -0.22647281 -0.3611741 -0.10969449 -0.052216828 -0.10861425 0.0042103967 0.020091984
-0.10988325 0.0033348699 -0.058735017 -0.17821625 -0.15252888 0.057713047 -0.0962043 -0.47965282
0.023206873 -0.075860776 0.27856177 0.1701335 -0.08888893 0.0763404 -0.24337478 0.027596312
-0.86466277 0.15515897 -0.3787941 -0.3224826 0.100175075 0.045099214 -0.08144077 0.043941256
-0.04467722 -0.08548187 -0.08727064 0.045035727 -0.07552674 -0.10957035 -0.0378894 -0.044642176
0.048227284 -0.31679296 -0.15924941 -0.15513207 0.12138773 -0.23559332 0.04517958 -0.102999374
0.03882112 -0.29295498 -0.23096307 0.22313665 -0.34248686 0.06688705 0.27655637 -0.1051381
0.36928204 0.112778135 0.118232116 -0.3972131 -0.011761098 0.032840844 -0.0154080745 0.0482917
0.16527179 -0.053363882 -0.02449429 -0.20020021 0.048327856 0.012998619 -0.008945037 0.25974476
-0.0297241 0.09746305 -0.124036476 -0.24598551 0.14180118 -0.19224207 -0.36256287 -0.09588139
-0.17607968 -0.014099051 -0.098578416 0.269311 -0.19979826 0.12337203 -0.59074897 0.04525998
-0.20960148 -0.059676766 -0.1777747 -0.03891333 -0.10871915 -0.07565079 -0.061668295 -0.12125584
-0.37709746 0.04466312 -0.08532793 -0.19879454 -0.029895479 -0.038643066 -0.07459763 -0.18198526
0.15841852 -0.018266605 0.020714039 -0.23973693 -0.0910453 0.029318891 0.047437847 0.2317315
-0.057325132 -0.07866411 -0.28555167 0.011735337 -0.5612767 0.2525705 -0.06182327 -0.12119126
-0.22707085 -0.07044358 -0.11223156 -0.11933572 -0.13362348 0.035275355 -0.0140754 0.04129425
0.060208116 0.0019221215 -0.1883117 -0.018051771 -0.22035982 -0.2933541 -0.07821268 -0.15845613
-0.03784091 0.08050107 -0.60571367 -0.22863384 0.023651915 -0.021632733 -0.24264117 -0.14815392
00000000: fa5d f8bd b728 0abd 9f43 9a3d e59d 203d
00000010: b6c5 743d 0be8 8ebd 3a3d 03bd 7e14 7fbd
00000020: 383a 5d3d b57b c6bd ba4f 8fb9 2428 20be
00000030: 1187 29bc 929a 573e 14f9 83be 4dc4 593e
00000040: 10c2 cd3d fb49 aebe 21b9 86be 201f c93d
00000050: 89e4 c93d e902 09be 2be7 0d3e 5476 1abe
00000060: ab38 c1bd 4bf9 0fba 92b7 933d 06d3 c73d
00000070: 0d2f 203c 7bde 8c3d b419 083e 24cf 1cbd
00000080: 3a8f ddbd cc37 aebd 9925 503e 5ea4 403d
00000090: eed7 6d3b 60e5 20bd 088f f6be b253 3ebe
000000a0: 1ce9 223e bbfe 0ebe 8d53 c43e 6444 abbe
000000b0: 2916 10bd 3660 2b3e 9b9a 7ebe 6142 7fbf
000000c0: ccbb c03c daa9 4e3e 4121 383e 79c4 fd3d
000000d0: 722b 833e d006 b4bd 641a 713d 7ad6 8fbd
000000e0: 8cb3 e43d 733d 3fbe bd5e ce3b 159b 3bbe
000000f0: a888 f03d 4ea6 1b3e 311e c43d f529 823e
00000100: 78e3 b7bd 05a9 f53d fec6 8c3d da82 01be
00000110: 2f39 4e3e 5a34 623e ca14 a0bd fb3a ef3c
00000120: 5fec 36be 6ecf a63d 6164 bb3c 4f49 b0bd
00000130: 91ac be3d fa46 10be 987a b23c 758c 583d
00000140: b4fe fd3d 9071 f5bc 96b8 273a 8248 89be
00000150: 517e 3c3e 1977 dfbb c7e0 07bd 8f9b 8b3c
00000160: 3217 783e 0a74 45bd 0718 993c 1481 c9bd
00000170: 9915 d33d 407c 00be fa70 833b a5b6 bebd
00000180: e66e 8a3d 932d 7bbe bedb 003d 5798 0dbf
00000190: 8222 15be 9b8c 903d 2e83 71bd b5a8 0d3b
000001a0: d8d5 7cbd 55cc c6bd 736a b53d e69a 70be
000001b0: 07b0 6c3d 3f95 0abe 9be5 873c 231a 66bd
000001c0: 9ee6 8fbd 7de8 67be d0eb b8be 81a7 e0bd
000001d0: 50e1 55bd 2671 debd 5ef7 893b f297 a43c
000001e0: 780a e1bd d58d 5a3b 2194 70bd 527e 36be
000001f0: 8830 1cbe 8464 6c3d c306 c5bd 0e95 f5be
00000200: 571c be3c e55c 9bbd a69f 8e3e 7a37 2e3e
00000210: 660b b6bd 5b58 9c3d 3d37 79be a911 e23c
00000220: 8a5a 5dbf fee1 1e3e 4df1 c1be 701c a5be
00000230: 9728 cd3d f4b9 383d 6bca a6bd bffb 333d
00000240: 76ff 36bd 1e11 afbd f3ba b2bd 6277 383d
00000250: c3ad 9abd 6b66 e0bd ea31 1bbd b7da 36bd
00000260: f989 453d b032 a2be 4712 23be f1da 1ebe
00000270: 219a f83d 603f 71be 390e 393d 56f1 d2bd
00000280: e502 1f3d 32fe 95be 9581 6cbe ef7d 643e
00000290: 705a afbe 14fc 883d cc98 8d3e a552 d7bd
000002a0: 8912 bd3e 39f8 e63d ae23 f23d 845f cbbe
000002b0: 9fb1 40bc 1f84 063d 2672 7cbc 85cd 453d
000002c0: 023d 293e 1694 5abd 40a8 c8bc 4901 4dbe
000002d0: 6ef3 453d 29f8 543c 348e 12bc 44fd 843e
000002e0: f57f f3bc b59a c73d d606 febd a0e3 7bbe
000002f0: 5434 113e 1bdb 44be d7a1 b9be 765d c4bd
00000300: 3b4e 34be b5ff 66bc 7be3 c9bd 22e3 893e
00000310: ea97 4cbe 7aaa fc3d 533b 17bf 8762 393d
00000320: c5a1 56be a06f 74bd 920a 36be 9563 1fbd
00000330: 25a8 debd cdee 9abd e597 7cbd fb54 f8bd
00000340: eb12 c1be adf0 363d 69c0 aebd cc90 4bbe
00000350: 5de7 f4bc 3148 1ebd a4c6 98bd 585a 3abe
00000360: 7738 223e d9a3 95bc 7db0 a93c 997d 75be
00000370: f575 babd 2c2e f03c 304e 423d 064b 6d3e
00000380: c2cd 6abd a61a a1bd d433 92be 9245 403c
00000390: d4af 0fbf ec50 813e 663a 7dbd 2033 f8bd
000003a0: 4385 68be b944 90bd a9d9 e5bd 4966 f4bd
000003b0: 98d4 08be e47c 103d 829c 66bc 2924 293d
000003c0: c99c 763d b2ef fb3a c8d4 40be 4fe1 93bc
000003d0: 01a6 61be 8232 96be f82d a0bd 5342 22be
000003e0: 12ff 1abd bfdd a43d 0d10 1bbf fd1e 6abe
000003f0: a9c1 c13c 2137 b1bc ed76 78be a9b5 17be

fc2.bias f4 [150]
-0.3961717 0.028976304 -0.20350102 -0.03847178 0.29440674 0.32928348 -0.08458376 0.11278866
-0.018182976 0.41741467 0.013732453 0.1581383 -0.13759941 -0.00817416 -0.095048465 0.016749138
-0.12296182 -0.039898552 0.0017496427 0.43651345 -0.109469414 -0.094892904 0.20532411 0.34300876
-0.16609831 -0.09129362 -0.07776081 -0.10340005 -0.018408718 -0.67170644 -0.065639295 0.081286065
-0.2128124 0.034664776 -0.12827599 0.2780756 0.24707651 0.30979872 -0.04313072 -0.14974388
0.11209332 0.19590257 0.022994705 -0.052785657 -0.066880375 0.030680437 -0.039784946 -0.073822856
-0.025567247 -0.15882781 0.3434146 -0.021005219 -0.029516127 0.00937941 -0.37735325 -0.019708477
-0.00066467066 -0.112184465 0.038250126 -0.04001508 -0.082569644 -0.08507219 -0.020919546 -0.06111212
-0.07221303 -0.016838023 0.12132005 0.005899674 0.43495315 0.14314012 -0.010826526 -0.02567987
-0.06435662 0.13762932 -0.09350416 -0.0565106 -0.060544565 -0.122310534 0.03991997 -0.022938233
0.19284603 -0.095428936 0.09194165 -0.0061071487 -0.06599595 -0.103282824 -0.01897999 -0.08608297
-0.26730245 -0.010152154 0.013657352 0.006097919 0.20876198 -0.12556124 -0.15126616 0.017521732
0.0037020417 -0.060493506 -0.13675864 -0.037176106 -0.07898457 -0.013728554 -0.10278167 0.00048725927
-0.06300077 -0.032394767 0.44342223 0.031571645 0.215321 -0.037337232 -0.02310957 0.12265251
-0.05475253 0.10053397 -0.0907189 0.063116536 -0.19569711 -0.027455663 -0.023012524 -0.113492064
-0.08502912 0.23374163 -0.0015274577 -0.09974329 -0.10009522 -0.04231941 0.068331085 -0.12076333
-0.08330293 -0.05364457 -0.15433456 0.04597647 -0.05639719 0.04452079 -0.050153226 -0.042733707
-0.091822386 -0.11657986 -0.07941263 0.16634451 0.17100056 -0.001111846 -0.029102175 -0.011607186
0.1711953 -0.05419558 -0.013236172 0.02547603 -0.062254325 -0.098943666
00000000: 04d7 cabe b75f ed3c 9262 50be 9694 1dbd
00000010: 7bbc 963e d897 a83e 403a adbd befd e63d
00000020: 77f4 94bc 60b7 d53e 15fe 603c 02ef 213e
00000030: dce6 0cbe e9ec 05bc c5a8 c2bd 7d35 893c
00000040: 68d3 fbbd aa6c 23bd 4454 e53a b17e df3e
00000050: 8031 e0bd 3657 c2bd 7c40 523e d89e af3e
00000060: ad15 2abe 26f8 babd 0f41 9fbd 68c3 d3bd
00000070: e1cd 96bc f4f4 2bbf e56d 86bd 4f79 a63d
00000080: 7eeb 59be a7fc 0d3d c85a 03be ed5f 8e3e
00000090: a001 7d3e f09d 9e3e d6a9 30bd 7656 19be
000000a0: 2f91 e53d af9a 483e 645f bc3c c635 58bd
000000b0: 94f8 88bd 8a55 fb3c 8af5 22bd 7030 97bd
000000c0: 6772 d1bc c2a3 22be 0ad4 af3e 2313 acbc
000000d0: cecb f1bc 19ac 193c 7234 c1be ac73 a1bc
000000e0: 4b3d 2eba f8c0 e5bd 2aac 1c3d dae6 23bd
000000f0: 461a a9bd 543a aebd 785f abbc b450 7abd
00000100: 6de4 93bd e5ef 89bc a576 f83d 0d52 c13b
00000110: 2eb2 de3e 5393 123e be61 31bc 975e d2bc
00000120: 67cd 83bd b3ee 0c3e 1c7f bfbd a977 67bd
00000130: 94fd 77bd f27d fabd 1f83 233d f6e8 bbbc
00000140: 6e79 453e 3f70 c3bd e74b bc3d 7a1e c8bb
00000150: e228 87bd f285 d3bd ed7b 9bbc 454c b0bd
00000160: dedb 88be 3855 26bc 16c3 5f3c 0dd1 c73b
00000170: b3c5 553e 2093 00be 84e5 1abe bc89 8f3c
00000180: f49d 723b 0ac8 77bd 750a 0cbe f945 18bd
00000190: aac2 a1bd bbed 60bc 327f d2bd d576 ff39
000001a0: 8c06 81bd 60b0 04bd 3d08 e33e 4551 013d
000001b0: 1c7d 5c3e edee 18bd 4850 bdbc 3d31 fb3d
000001c0: 3044 60bd c1e4 cd3d d5ca b9bd 3e43 813d
000001d0: d364 48be b3ea e0bc c384 bcbc 876e e8bd
000001e0: bf23 aebd f759 6f3e fa34 c8ba 3646 ccbd
000001f0: b9fe ccbd 1e57 2dbd 2bf1 8b3d c452 f7bd
00000200: ba9a aabd 69ba 5bbd e109 1ebe d351 3c3d
00000210: bd00 67bd 6f5b 363d 786d 4dbd 8a09 2fbd
00000220: 600d bcbd 6cc1 eebd 17a3 a2bd 3756 2a3e
00000230: c51a 2f3e 5cbb 91ba af67 eebc 112c 3ebc
00000240: d24d 2f3e 2ffc 5dbd 87dc 58bc 1bb3 d03c
00000250: 64fe 7ebd faa2 cabd

fc3.weight f4 [1, 150]
0.009727986 0.025521236 -0.010374448 0.005033873 -0.011649794 -0.0047352943 0.014533803 0.016790155
0.01948929 -0.005299822 -0.0016810073 -0.009759241 0.032166775 -0.009656115 0.0048781796 0.021778997
0.000577136 -0.008554322 0.0006924147 0.016722927 -0.036320064 -0.0055102925 -0.0044808765 -0.006756187
-0.008795101 0.011328456 -0.015023741 -0.022784878 0.019470382 0.016052537 -0.012705574 -0.010809172
0.010869821 -0.01322779 -0.02282298 0.012365858 -0.009199019 0.011966602 0.014335323 -0.013072046
-0.0063245026 0.026657626 0.011808177 -0.015358867 -0.018653894 -0.014328118 0.0039996053 -0.009354485
0.0051476574 -0.009054683 0.005607817 0.00036977502 0.028737538 0.011662196 0.010891592 0.0035764424
0.021944491 -0.008468584 -0.013729644 -0.008334629 0.022187749 -0.019463934 -0.0013427134 -0.007994008
-0.0044138157 -0.021792637 -0.017982056 -0.0077772783 -0.007788479 0.026886614 0.035473682 -0.014435726
-0.007943063 -0.011109573 0.015560543 0.013441796 0.014368343 0.013537162 -0.010452027 0.017246557
-0.010356862 -0.016418304 -0.009466029 0.006919208 -0.0018627406 0.019063208 0.006668601 -0.005234817
0.010307993 -0.01717968 0.00095451926 -0.005791905 -0.014471134 0.0100968145 0.009543266 -0.008833368
0.011550574 -0.012745079 -0.008719197 -0.025813002 -0.007908694 -0.01535587 0.008915317 0.01661618
-0.01803362 -0.012521897 0.006928808 0.00013057087 0.010014759 -0.026534919 0.021123778 -0.002994914
0.012375237 -0.0075696865 0.0028428074 0.013977737 0.0102204075 0.010156531 0.012675045 -0.014115991
0.010962557 0.009043959 -0.018008336 0.018698793 -0.015747484 -0.011633795 -0.015875934 -0.009172264
0.0022890074 -0.017208323 -0.017407252 0.00466692 0.021343064 -0.005469797 -0.021530641 -0.0149628585
0.024701366 -0.009935832 -0.009567636 -0.014609751 -0.011221566 -0.014943336 -0.014589211 0.0039920667
-0.01058669 -0.008138146 0.029798068 -0.0028255796 -0.009177422 0.026217982
00000000: 2162 1f3c e911 d13c 97f9 29bc 30f3 a43b
00000010: c7de 3ebc 872a 9bbb 301f 6e3c 828b 893c
00000020: 01a8 9f3c 21aa adbb 3f55 dcba 39e5 1fbc
00000030: 4fc1 033d af34 1ebc 23d9 9f3b de69 b23c
00000040: f14a 173a 6d27 0cbc 2a83 353a 85fe 883c
00000050: 59c4 14bd af8f b4bb 51d4 92bb 0163 ddbb
00000060: 5419 10bc fd9a 393c 2326 76bc 5aa7 babc
00000070: 5a80 9f3c 9c80 833c 0a2b 50bc f418 31bc
00000080: 5517 323c 5fb9 58bc 42f7 babc 2b9a 4a3c
00000090: 7bb7 16bc 910f 443c b4de 6a3c 232c 56bc
000000a0: c63d cfbb 1861 da3c 1677 413c c2a3 7bbc
000000b0: 0dd0 98bc 7cc0 6abc 1f0f 833b 8e43 19bc
000000c0: aead a83b 185a 14bc c7c1 b73b 5dde c139
000000d0: fc6a eb3c cc12 3f3c a672 323c bf62 6a3b
000000e0: efc4 b33c d1bf 0abc 4df2 60bc f88d 08bc
000000f0: 15c3 b53c d472 9fbc fcfd afba 4df9 02bc
00000100: c5a1 90bb 7986 b2bc 1b4f 93bc 8ad8 febb
00000110: 7f36 ffbb 5141 dc3c da4c 113d d383 6cbc
00000120: 9f23 02bc ed04 36bc a6f1 7e3c fb3a 5c3c
00000130: 3369 6b3c f9ca 5d3c fb3e 2bbc a748 8d3c
00000140: d4af 29bc ae7f 86bc 6717 1bbc 86ba e23b
00000150: 3427 f4ba 722a 9c3c 4884 da3b d488 abbb
00000160: dbe2 283c 66bc 8cbc b438 7a3a 05ca bdbb
00000170: 5618 6dbc 1c6d 253c 5c5b 1c3c d5b9 10bc
00000180: 9e3e 3d3c bcd0 50bc f6da 0ebc ca75 d3bc
00000190: 7893 01bc 3097 7bbc 8d11 123c a81e 883c
000001a0: 3ebb 93bc a528 4dbc 0e0b e33b dae9 0839
000001b0: f214 243c c25f d9bc c60b ad3c 5246 44bb
000001c0: 82c1 4a3c 220b f8bb 654e 3a3b e102 653c
000001d0: 7f73 273c 9467 263c feaa 4f3c c246 67bc
000001e0: 4c9c 333c 1d2d 143c 3886 93bc 362e 993c
000001f0: de00 81bc ac9b 3ebc 3f0e 82bc 4347 16bc
00000200: 2c03 163b 78f8 8cbc a799 8ebc f6ec 983b
00000210: a6d7 ae3c fc3b b3bb 0761 b0bc c726 75bc
00000220: 855a ca3c e6c9 22bc 93c1 1cbc bd5d 6fbc
00000230: a9da 37bc e5d4 74bc 9607 6fbc e2cf 823b
00000240: cc73 2dbc dc55 05bc 141b f43c 5c2d 39bb
00000250: e65c 16bc 18c7 d63c
