maddpg/models/critic_params_1.pth (torch_old, 164605 bytes, 5 tensors)

fcs1.weight f4 [200, 52]
0	0xbc46d15c	-0.012134876
1	0xbe6037e0	-0.21896315
2	0x3c3a31eb	0.01136444
3	0x3db0ec33	0.086388014
4	0x3de5b02b	0.11215242
5	0x3ddfe379	0.10932059
6	0xbdc42623	-0.095775865
7	0x3dafb40c	0.08579263
8	0x3d1c4639	0.038152907
9	0xbe60219d	-0.21887822
10	0x3cc0ba4c	0.023526333
11	0xbe3faad8	-0.18717515
12	0xbe0f94c0	-0.14021587
13	0x3d21ef7e	0.03953504
14	0x3ccd5601	0.025065424
15	0xbe39bf2e	-0.18139336
16	0x3d4eff83	0.050536644
17	0xbe26a9f2	-0.16275766
18	0xbc1f415c	-0.009720173
19	0xbc1bbaa3	-0.009504947
20	0x3cb21a59	0.02174108
21	0xbe1a8ddc	-0.15093178
22	0xbcaa5d4c	-0.02079644
23	0xbd6c5965	-0.05770244
24	0x3d95a7cf	0.073073976
25	0x3e8e0b83	0.27743158
26	0xbce8499b	-0.02835541
27	0xbe4e2dd0	-0.20134664
28	0xbd1027f2	-0.035194345
29	0x3c2bece1	0.010493488
30	0xbcfb8dc2	-0.030707244
31	0xbe7c18de	-0.24618861
32	0x3d24be41	0.040220503
33	0x3d9f344b	0.07773646
34	0xbd1ac090	-0.0377813
35	0xbd1c5d8b	-0.038175147
36	0x3d726435	0.059177596
37	0x3defed58	0.117151916
38	0xbd488559	-0.048955295
39	0xbda2d32b	-0.07950433
40	0xbcc21c96	-0.023695271
41	0x3e6f272c	0.23354787
42	0xbce05222	-0.027382914
43	0xbe7af586	-0.24507722
44	0x3cee9fe7	0.029128982
45	0xbdefe9ab	-0.117144905
46	0x3c97137c	0.018441908
47	0xbe726061	-0.23669578
48	0x3f1ac977	0.6046366
49	0xbf07e8c9	-0.53089577
50	0x3f7083f6	0.93951356
51	0xbf197892	-0.599496
52	0xbc533f07	-0.012893445
53	0xbf043aee	-0.5165242
54	0xbd09cdd3	-0.033643555
55	0xbe2d9566	-0.16951522
56	0x3dbf97e3	0.09355142
57	0xbe5c9bcc	-0.21543807
58	0x3d14950d	0.03627496
59	0xbe5b34fd	-0.21406932
60	0xbbfd61de	-0.007732614
61	0xbe61b965	-0.22043379
62	0xbd907f24	-0.070555
63	0xbdd3df18	-0.10345286
64	0x3d4c57d4	0.049888447
65	0xbe74f560	-0.23921728
66	0x3d0b690a	0.03403572
67	0xbda0f1b7	-0.078586034
68	0xbc27f8d2	-0.0102521945
69	0xbe4bd099	-0.19903792
70	0xbd3cf860	-0.046135306
71	0x3db7474e	0.08949147
72	0xbd3449e8	-0.044015795
73	0xbda57b84	-0.08080199
74	0xbcd38374	-0.025819518
75	0x3dbf9018	0.093536556
76	0xbc4124ac	-0.011788528
77	0x3e5bc726	0.21462688
78	0x3dbafc1e	0.09130119
79	0xbdde8983	-0.10866072
80	0xbda02850	-0.07820189
81	0xbde21215	-0.11038605
82	0x3da3361f	0.07969307
83	0xbdcad843	-0.0990453
84	0x3c6c4422	0.014420541
85	0x3eacd67c	0.3375739
86	0x3d988fd4	0.07449308
87	0xbd6bf9d6	-0.05761131
88	0x3c950909	0.018192785
89	0xbe5f3c5d	-0.2180037
90	0x3d527013	0.051376414
91	0xbd2e8b12	-0.042613097
92	0x3e297984	0.16550261
93	0x3f06146d	0.5237492
94	0x3d8ffc92	0.07030596
95	0x3d012f4a	0.03153924
96	0xbd48432d	-0.04889219
97	0xbcc8d4a5	-0.02451546
98	0x3e0e32f4	0.13886625
99	0x3cb1c5ba	0.021700729
100	0x3ed4eeee	0.4158854
101	0x3ddd04fd	0.10791967
102	0x3fd74dce	1.6820619
103	0xbf46a677	-0.77597755
104	0x3dbcd89b	0.09221002
105	0x3f43be6d	0.7646244
106	0x3d10f640	0.035391092
107	0xbd94a1bf	-0.07257413
108	0xbe49df2e	-0.19714043
109	0x3eb8a301	0.36061862
110	0xbd2e8e55	-0.042616207
111	0xbdfef5ac	-0.12449202
112	0x3dc5401a	0.09631367
113	0x3f409382	0.7522508
114	0xbd8920b6	-0.06695692
115	0xbe251f6e	-0.1612527
116	0xbd207041	-0.039169554
117	0x3ddee790	0.10884011
118	0x3d23d770	0.04000038
119	0xbe8331f0	-0.25624037
120	0x3c7af2c1	0.015316666
121	0x3f3c88fc	0.7364652
122	0xbcad6a78	-0.021168932
123	0x3d6f43d1	0.058414284
124	0x3e1df628	0.15425932
125	0xbed605fb	-0.41801438
126	0xbcf3763e	-0.029719468
127	0x3e030da0	0.12798166
128	0xbdc3749c	-0.09543726
129	0x3e8a6b95	0.27035204
130	0xbbc0cee6	-0.005884039
131	0xbe2ae28e	-0.16687986
132	0x3e890ded	0.26768437
133	0x3ec5d50e	0.3863911
134	0xbcd2a152	-0.02571169
135	0xbe57ec5e	-0.2108626
136	0x3d87ce2e	0.066311225
137	0x3e3aedca	0.18254772
138	0xbd7fe913	-0.062478136
139	0xbdc47651	-0.095928796
140	0x3c386783	0.011255148
141	0x3e198f0c	0.14995974
142	0xbd203700	-0.039114952
143	0xbe2bd76a	-0.16781393
144	0x3dd02196	0.10162656
145	0x3e34b207	0.17646037
146	0xbc0ec3ea	-0.008713702
147	0xbda7a796	-0.08186261
148	0xbe4f8eb7	-0.20269285
149	0xbef9dd2f	-0.48801562
150	0x3b3e264a	0.0029014521
151	0xbe155072	-0.14581469
152	0xbf1d5613	-0.61459464
153	0x3eae3faa	0.34032947
154	0xbe178c73	-0.14799671
155	0x3ed791a1	0.42103294
156	0x3d853d9b	0.06505891
157	0x3ec99616	0.3937232
158	0xbd4be5f4	-0.049779847
159	0x3b3e08bd	0.0028996908
160	0x3eafe8de	0.3435735
161	0xbdcea88d	-0.10090742
162	0x3d3e35e6	0.04643812
163	0xbc618063	-0.01376352
164	0x3df45758	0.11930722
165	0x3f0a24cc	0.539624
166	0x3cc40d50	0.02393213
167	0x3bb100e0	0.0054017156
168	0xbb50bc15	-0.0031850387
169	0xbd492633	-0.049108695
170	0x3c1d0ff1	0.00958632
171	0x3c900d90	0.017584592
172	0x3e28fd82	0.16502956
173	0x3e9afc82	0.30270773
174	0xbd061cd6	-0.032742344
175	0xbe8839d1	-0.2660661
176	0xbe8a0999	-0.26960447
177	0x3d3c60e1	0.04599083
178	0xbc6f944f	-0.014622762
179	0xbe973f6c	-0.29540575
180	0x3b86134f	0.004091657
181	0xbe039d7a	-0.12853041
182	0x3d60ae67	0.054853823
183	0x3da14714	0.07874885
184	0xbeb41757	-0.35174057
185	0xbc77f0c8	-0.01513309
186	0x3d23df8f	0.040008124
187	0x3db09c2a	0.08623536
188	0xbc4c7cc6	-0.01248092
189	0xbd5169e8	-0.05112639
190	0x3ca81fc2	0.020522956
191	0xbe1efcd1	-0.1552613
192	0xbde0b7e2	-0.10972573
193	0xbda3916a	-0.0798672
194	0x39930c5c	0.00028047233
195	0xbde38c7f	-0.11110782
196	0xbd908145	-0.07055906
197	0xbe1f5863	-0.1556106
198	0xbc115096	-0.008869311
199	0x3e159571	0.14607789
200	0x3eaccf0d	0.33751717
201	0x3def248f	0.11676895
202	0x3d9d37d8	0.07676667
203	0x3e35adbb	0.17742054
204	0xbe11a41c	-0.14222759
205	0xbdb835b5	-0.08994619
206	0xbf33b831	-0.7020293
207	0x3f20b551	0.62776667
208	0xbd6f3dbb	-0.05840848
209	0x3d84d420	0.06485772
210	0x3cc8f0da	0.02452891
211	0xbe922a15	-0.2854773
212	0xbce779cd	-0.028256321
213	0x3e49b96b	0.19699638
214	0xbb9bffc7	-0.0047607156
215	0xbe6298fb	-0.2212867
216	0xbc662caf	-0.014048739
217	0x3dd84036	0.10559122
218	0xbc86d776	-0.016460162
219	0x3d2497d0	0.040183842
220	0x3d810b92	0.06301035
221	0xbc6fcabb	-0.014635737
222	0x3cfad15f	0.030617414
223	0x3d6ad9e8	0.057336718
224	0x3bf1f9d3	0.0073845177
225	0x3e64543f	0.22297762
226	0x3c9826c5	0.018573174
227	0x3e947fdb	0.29003796
228	0xbde6e5d5	-0.11274306
229	0xbed741ca	-0.4204238
230	0xbd891956	-0.066942856
231	0x3e7cd3ba	0.24690142
232	0x3d7fc222	0.062441
233	0x3e20d608	0.15706646
234	0xbce6e91c	-0.028187327
235	0x3e7bbf6c	0.2458474
236	0xbd482a56	-0.0488685
237	0x3e6437d6	0.22286925
238	0xbabe75cd	-0.0014530957
239	0x3e5cb434	0.21553117
240	0x3dcd9f6c	0.10040173
241	0x3dd23bef	0.10265338
242	0xbd886b65	-0.06661109
243	0xbe30515c	-0.17218536
244	0xbae37115	-0.0017352427
245	0x3d1ab787	0.03777268
246	0xbd0e2418	-0.03470239
247	0xbe5ee051	-0.21765257
248	0x3db41620	0.087932825
249	0x3df5ea03	0.12007525
250	0x3d5188db	0.051155906
251	0x3e87e51d	0.26541987
252	0x3e012397	0.12611233
253	0xbee1f03e	-0.44128603
254	0x3db73f44	0.08947614
255	0x3e77313d	0.24139877

fcs1.bias f4 [200]
0	0xbeaafd76	-0.333965
1	0xbe698be9	-0.22807278
2	0x3c8ad8f3	0.016949153
3	0x3d770a61	0.060312632
4	0x3e543d48	0.20726502
5	0xbebaae7f	-0.36461255
6	0xbea79d1d	-0.32737055
7	0xbf012a58	-0.50455236
8	0x3dbde0e4	0.0927141
9	0x3e6f951f	0.23396729
10	0x3dbd44c3	0.09241631
11	0xbdef7505	-0.116922416
12	0x3e2d9a9c	0.1695351
13	0xbdb62258	-0.08893269
14	0xbd860c8f	-0.06545364
15	0xbd90e6ef	-0.07075297
16	0xbe84e803	-0.2595826
17	0xbe532c44	-0.20622355
18	0xbe560fe8	-0.20904505
19	0x3d3f94d5	0.046772797
20	0x3f0398e9	0.514052
21	0x3bde4514	0.006783137
22	0x3e1be75a	0.15224972
23	0xbecfc060	-0.40576458
24	0xbefb7785	-0.49114624
25	0xbe8924f3	-0.26786003
26	0xbea2b204	-0.3177644
27	0xbefcc026	-0.49365348
28	0xbde2cab8	-0.11073822
29	0x3f04ee20	0.5192585
30	0xbdb28f88	-0.08718783
31	0xbedb19e0	-0.4279318
32	0xbd194c64	-0.037426367
33	0x3e5f8a16	0.2183002
34	0xbe5077f5	-0.2035826
35	0xbd2e4291	-0.04254395
36	0xbec8d9ee	-0.39228767
37	0xbe4f8f14	-0.20269424
38	0xbdc49674	-0.09599009
39	0xbdb20d54	-0.086939484
40	0xbc094ed6	-0.008380612
41	0x3dcb9484	0.099404365
42	0x3e9e6b78	0.30941367
43	0xbc380370	-0.011231288
44	0xbe55d833	-0.20883255
45	0xbe680372	-0.22657564
46	0xbe6316f6	-0.22176728
47	0xbe6191b8	-0.22028244
48	0xbe15bf06	-0.14623651
49	0x3e8547bd	0.26031294
50	0x3e7a5e1b	0.24449961
51	0x3eb03018	0.34411693
52	0x3e44094f	0.19144176
53	0xbe9fdb0a	-0.312218
54	0xbe3e922f	-0.18610452
55	0xbeb02883	-0.34405908
56	0xbf200c96	-0.62519205
57	0xbe2567cf	-0.16152881
58	0x3e80a3d8	0.25125003
59	0x3e296002	0.1654053
60	0x3c8ad022	0.016944949
61	0x3dff9395	0.12479321
62	0xbed26b41	-0.41097453
63	0x3e1f53c4	0.15559298
64	0x3d555f2a	0.05209271
65	0xbe992423	-0.29910383
66	0xbc02a5d2	-0.007974105
67	0x3ef06b58	0.46956897
68	0xbe62cdb3	-0.2214878
69	0x3f039bf5	0.51409847
70	0xbe9b2c2c	-0.30307138
71	0x3d8e1af1	0.069387324
72	0xbe7d6952	-0.24747208
73	0xbeb2cff4	-0.3492428
74	0x3e43955f	0.1909995
75	0x3d8a4220	0.067508936
76	0xbedbcc1f	-0.4292917
77	0xbe97c5e5	-0.2964317
78	0xbdf5a421	-0.11994196
79	0xbb99ab9e	-0.004689648
80	0x3de36779	0.1110372
81	0x3e68ed32	0.22746733
82	0xbe32f04b	-0.17474477
83	0x3cec204e	0.028823998
84	0xbe079ed0	-0.13244176
85	0x3e3e7b90	0.18601823
86	0x3d7e4ea8	0.06208673
87	0xbe83913e	-0.25696748
88	0x3e4fc824	0.20291191
89	0x3d71f52b	0.0590717
90	0xbd539d9a	-0.051663972
91	0xbe23c3e6	-0.15992698
92	0xbd57e647	-0.052709844
93	0xbeda0e1f	-0.425889
94	0xbe5dd914	-0.2166484
95	0xbd7b941e	-0.061420552
96	0xbf061dfd	-0.5238951
97	0xbdae5439	-0.08512158
98	0xbe2be4f2	-0.16786554
99	0xbecceab7	-0.40022823
100	0x3eb6f62f	0.35734698
101	0xbea8ce32	-0.32969815
102	0xbcd417be	-0.025890227
103	0xbe523241	-0.20526983
104	0xbdd8b69d	-0.10581706
105	0xbe85fd2f	-0.26169726
106	0x3c8f9288	0.017525926
107	0xbd95ca70	-0.073140025
108	0xbb6af339	-0.0035850538
109	0x3e02507d	0.12726016
110	0xbe07f318	-0.13276327
111	0xbec6bc30	-0.3881545
112	0xbe4765de	-0.19472453
113	0xbecd79a5	-0.4013187
114	0xbdd7e36e	-0.10541426
115	0xbd757a8a	-0.059931315
116	0xbe4f949a	-0.20271531
117	0xbea0de8d	-0.31419793
118	0xbe46d4ae	-0.19417068
119	0x3db5bd36	0.0887398
120	0x3d0d5db3	0.034513187
121	0x3d8da975	0.06917087
122	0x3eb8c799	0.3608978
123	0x3e8e0cb9	0.27744082
124	0x3dbf9d04	0.0935612
125	0xbeaafb9e	-0.33395094
126	0xbdbb2018	-0.09136981
127	0xbe7196a3	-0.2359262
128	0xbe77cb83	-0.24198727
129	0x3ed3ed37	0.41391918
130	0xbea49c6f	-0.321506
131	0x3e85bee5	0.26122203
132	0xbbff0852	-0.0077829743
133	0xbe629322	-0.22126439
134	0xbe99a2ff	-0.3000717
135	0x3e461bf3	0.193466
136	0xbe58b1b7	-0.21161543
137	0x3d00a8b3	0.031410884
138	0xbbe0e7f2	-0.0068635875
139	0xbe07d3fe	-0.13264462
140	0xbe9c3838	-0.30511642
141	0x3ed022dc	0.40651596
142	0xbe00eda8	-0.12590659
143	0xbaaca40a	-0.0013171446
144	0xbc66a137	-0.014076523
145	0x3e8934ea	0.26798183
146	0xbdfa5da2	-0.1222489
147	0xbef008ab	-0.46881613
148	0xbecd4b96	-0.4009673
149	0xbe495eb4	-0.19665033
150	0xbeec9c94	-0.4621321
151	0xbcc7b490	-0.024378091
152	0xbe8b2eb1	-0.2718406
153	0x3e8d825b	0.27638516
154	0xbe9b8312	-0.30373436
155	0xbe2a711b	-0.16644709
156	0x3e4e8ac9	0.2017013
157	0x3d63f154	0.05565007
158	0x3c928759	0.017886804
159	0xbaca0c41	-0.0015415029
160	0x3e73d8d5	0.23813184
161	0xbeb6f349	-0.35732487
162	0xbf4551bc	-0.7707784
163	0xbeb32d23	-0.34995374
164	0x3d2a1ac0	0.041529417
165	0xbddae007	-0.10687261
166	0x3d03ac2c	0.032146618
167	0xbe72d96b	-0.23715751
168	0xbe5feb77	-0.21867166
169	0xbe0f48b1	-0.13992573
170	0xbbbb1023	-0.0057087108
171	0x3e50a1d7	0.20374237
172	0x3eb6169b	0.35564122
173	0x3e35f6f5	0.17769988
174	0xbe10d90a	-0.14145294
175	0xbebdd0a4	-0.37073243
176	0xbe4660d1	-0.1937287
177	0x3e24a030	0.16076732
178	0xbdd91943	-0.106005214
179	0xbdda9767	-0.10673409
180	0xbe4d2fee	-0.20037815
181	0xbe10e9c0	-0.14151669
182	0xbf0c0ca3	-0.5470678
183	0xbf291243	-0.6604349
184	0x3e27433b	0.1633424
185	0xbdf461d8	-0.11932725
186	0xbe9344a5	-0.2876331
187	0x3e0885f2	0.13332346
188	0xbdec01da	-0.11523791
189	0x3db4d41d	0.0882952
190	0xbe59d7fd	-0.21273799
191	0xbdc99862	-0.09843518
192	0xbd6b4dfa	-0.05744741
193	0xbe9325f5	-0.28739896
194	0xbe2b9c02	-0.16758731
195	0x3f087b44	0.5331309
196	0x3d172294	0.03689821
197	0xbe4339d2	-0.19065025
198	0xbe31d6ad	-0.17367049
199	0xbe2d109a	-0.16900864

fc2.weight f4 [150, 200]
0	0xbe14b0b1	-0.14520527
1	0xbd26a9a6	-0.040689133
2	0xbdb67ed6	-0.08910911
3	0xbe4db820	-0.2008977
4	0x3ea93f06	0.33055896
5	0xbd812491	-0.063058026
6	0x3dc62f27	0.09676962
7	0x3d5ab831	0.053398315
8	0xbde90e38	-0.11379665
9	0xbcf0700e	-0.029350307
10	0x3db5e427	0.08881407
11	0xbe3c396c	-0.1838128
12	0xbe071cca	-0.13194576
13	0x3e6a4470	0.2287767
14	0x3da2de5d	0.07952569
15	0xbdd5a9a5	-0.10432748
16	0xbe3423c8	-0.17591774
17	0x3daddc68	0.08489305
18	0xbc41aa3d	-0.011820373
19	0x3eb3465c	0.35014617
20	0x3e51433b	0.20435803
21	0xbe8d372d	-0.27581158
22	0xbd860feb	-0.06546005
23	0xbc27cc00	-0.0102415085
24	0xbd9c2978	-0.07625097
25	0x3c15da9e	0.009146361
26	0xbef0e304	-0.470482
27	0xbe910f57	-0.28332016
28	0x3e22de26	0.15905055
29	0x3e0a27e5	0.13491781
30	0x3e15054a	0.14552799
31	0xbce97a0f	-0.028500585
32	0xbe569f1a	-0.2095913
33	0x398fa112	0.00027395092
34	0xbe023671	-0.1271608
35	0xbde4b6fc	-0.11167714
36	0x3d91e561	0.07123829
37	0x3d0639f8	0.032770127
38	0xbec5783e	-0.385683
39	0xbef46c04	-0.4773866
40	0xbbb516b5	-0.0055263885
41	0xbe98e1f1	-0.2985988
42	0x3d9246ba	0.07142396
43	0xbd0ff3e1	-0.03514469
44	0xbc356c7d	-0.011073229
45	0xbe45150d	-0.19246311
46	0xbdaa3b17	-0.08312052
47	0xbd084946	-0.033273004
48	0xbdb5cab0	-0.0887655
49	0x3d916836	0.07099955
50	0xbe1c5a30	-0.15268779
51	0xbe52e0c0	-0.20593548
52	0x3b934a83	0.0044949665
53	0x3e7bc165	0.24585493
54	0xbec2263c	-0.37919796
55	0x3e4d764b	0.20064656
56	0x3d997277	0.074925356
57	0xbce6f7d8	-0.028194353
58	0x3e35a852	0.1773999
59	0x3e928c9b	0.28622898
60	0x3b6d9174	0.0036250027
61	0x3d3640f4	0.044495538
62	0x3d82093c	0.063494176
63	0xbec18cf9	-0.37802866
64	0x3de5ad7e	0.11214732
65	0x3d669183	0.056291115
66	0xbdb4d1f4	-0.08829108
67	0xbd1b0142	-0.037842996
68	0xbebaada3	-0.364606
69	0xbd11ceeb	-0.035597723
70	0x3bb9515f	0.005655452
71	0xbe130a26	-0.1435934
72	0xbec0df06	-0.37670153
73	0xbda328d4	-0.07966772
74	0x3e26458f	0.16237472
75	0xbe931cde	-0.2873296
76	0x3ea620d0	0.3244691
77	0x3de29a18	0.11064547
78	0xbe630e82	-0.22173503
79	0xbe65d6ed	-0.22445269
80	0x3da47b52	0.08031334
81	0x3e27a248	0.16370499
82	0x3e26663f	0.16249941
83	0x3e1a1e37	0.15050589
84	0xbd82b6b8	-0.06382507
85	0x3e70cbf4	0.23515302
86	0xbebeae8d	-0.37242547
87	0xbd7537ce	-0.059867673
88	0xbe4f39c1	-0.20236875
89	0xbe2c627e	-0.16834447
90	0x3dc4158a	0.09574421
91	0xbaed7605	-0.0018116838
92	0xbe6fea0c	-0.23429126
93	0x3e5fd262	0.21857598
94	0xbddf1319	-0.108923145
95	0xbef7116b	-0.48255476
96	0xbe00f96e	-0.1259515
97	0xbd9fa89f	-0.07795834
98	0xbe48bb76	-0.1960276
99	0xbeca1793	-0.3947111
100	0xbb70a51b	-0.0036719504
101	0xbbbe9d4b	-0.0058170906
102	0x3e1a8146	0.15088376
103	0xbd3a8b96	-0.045543276
104	0x3e7eaf4d	0.2487156
105	0xbe0f580f	-0.13998435
106	0x3eb26915	0.34845796
107	0xbe23272b	-0.1593291
108	0x3c8df640	0.017329335
109	0xbf1b5cff	-0.60688776
110	0xbf04eb93	-0.5192196
111	0x3d85560d	0.065105535
112	0xbcb4c769	-0.022067742
113	0xbe1ec038	-0.15503013
114	0xbef69646	-0.48161525
115	0xbd66198e	-0.056176715
116	0xbd11545a	-0.035480835
117	0xbd15e2a5	-0.0365931
118	0x3cb90dc6	0.022589575
119	0x3e442e3d	0.19158264
120	0xbe73417a	-0.23755446
121	0x37e3f829	2.7176067e-05
122	0x3de25a25	0.1105235
123	0xbeb4b3b9	-0.35293368
124	0xbd100724	-0.03516306
125	0x3d2c8389	0.04211763
126	0x3d72d07d	0.05928086
127	0x3d97c975	0.07411472
128	0x3d06bb8c	0.032893702
129	0xbe07cdf1	-0.13262154
130	0xbe1798e6	-0.1480442
131	0xbcfaa790	-0.030597478
132	0x3d39884c	0.045296
133	0xbdbd437f	-0.092413895
134	0xbe8f38ca	-0.27973014
135	0x3d1882aa	0.037233986
136	0x3e095445	0.13411053
137	0xbf2b71c5	-0.66970474
138	0xbdd765e5	-0.10517482
139	0xbea05747	-0.31316587
140	0xbed7ba13	-0.4213415
141	0xbe374df2	-0.17900828
142	0xbe94c71d	-0.2905816
143	0x3e2c5042	0.16827491
144	0xbe787c46	-0.24266157
145	0x3e4008fc	0.18753427
146	0xbda1b224	-0.07895306
147	0xbc030c84	-0.007998589
148	0xbd7b96ce	-0.061423115
149	0xbe250593	-0.16115408
150	0xbd230ed7	-0.039809074
151	0x3df7c727	0.12098532
152	0xbd9a57b3	-0.075362585
153	0xbd07f4e9	-0.03319255
154	0x3dcdcb1f	0.10048508
155	0xbc8dacce	-0.017294314
156	0xbd50c67d	-0.050970543
157	0x3d3258f3	0.04354186
158	0xbe9f5a00	-0.31123352
159	0xbd977ec7	-0.07397228
160	0xbe38dd2d	-0.18053122
161	0xbd756286	-0.059908412
162	0x3db89eaa	0.09014638
163	0xbd8349a7	-0.064105324
164	0xbe2d1a56	-0.16904578
165	0x3a433302	0.00074462604
166	0xbd4c6861	-0.04990423
167	0xbdf50346	-0.11963515
168	0xbe8257a8	-0.254575
169	0xbc52f881	-0.012876631
170	0x3d6e16f6	0.058127366
171	0xbe4a153f	-0.19734667
172	0x3ec924e6	0.39285964
173	0x3cd90e9e	0.026496228
174	0x3df28c8a	0.11843212
175	0xbc552a55	-0.013010581
176	0xbe19c50a	-0.1501657
177	0x3d1168bf	0.035500284
178	0x3d49421c	0.049135312
179	0xbed3670d	-0.4128956
180	0x3e04c54b	0.12965886
181	0xbc913f94	-0.017730512
182	0x3d993095	0.074799694
183	0xbe24f5a5	-0.16109331
184	0x3ce89c51	0.02839485
185	0xbe3b0201	-0.18262483
186	0xbe7a4329	-0.24439682
187	0x39ce6208	0.0003936442
188	0xbdffe0fb	-0.124940835
189	0x3b9d705c	0.004804654
190	0xbeadf313	-0.33974513
191	0xbec61e6a	-0.3869508
192	0xbeb12e07	-0.3460543
193	0xbd222dab	-0.039594334
194	0xbe44f7ad	-0.19235106
195	0x3e87090a	0.26374084
196	0xbd27e9b0	-0.040994346
197	0xbed4474d	-0.41460648
198	0x3b1b5ce3	0.0023706488
199	0xbc86d6e3	-0.016459888
200	0x3dc7f107	0.09762769
201	0xbe2a1c7c	-0.16612428
202	0xbdae4a76	-0.08510296
203	0xbd965c92	-0.07341875
204	0xbdc757c9	-0.097335406
205	0x3e04054c	0.12892646
206	0xbf699f80	-0.91259
207	0x3e8702de	0.26369375
208	0x3dd5aa34	0.10432854
209	0xbc171b05	-0.009222751
210	0x3c12643a	0.008935029
211	0x3e68935d	0.22712465
212	0xbde2c337	-0.110723905
213	0xbcfeb30b	-0.031091234
214	0x3b177d7a	0.0023115561
215	0xbd574430	-0.052555263
216	0x3c7b5a45	0.015341346
217	0x3c073cce	0.008254243
218	0xbe6d9467	-0.23201142
219	0xbe407512	-0.18794659
220	0xbc410baa	-0.011782566
221	0x3e0e20d2	0.13879707
222	0xbd07b76f	-0.03313392
223	0xbdb67783	-0.08909514
224	0x3e066abe	0.13126656
225	0xbe4e6eab	-0.20159404
226	0x3d33e33d	0.043917883
227	0xbd91f558	-0.07126874
228	0xbea033d3	-0.3128954
229	0x3d8e71d0	0.06955302
230	0xbd5aebd5	-0.053447563
231	0xbc99ee74	-0.018790461
232	0xbe34e4aa	-0.17665353
233	0xbd84dddd	-0.064876296
234	0xbed38b41	-0.4131718
235	0xbd884d6a	-0.066553906
236	0xbe8c51ad	-0.27406064
237	0xbdacbef5	-0.0843486
238	0xbf15a461	-0.5845395
239	0x3d69fa8c	0.057123706
240	0xbd28de50	-0.04122764
241	0xbe3fd74a	-0.1873447
242	0xbd1d7a26	-0.038446568
243	0x3cf24bdc	0.029577188
244	0xbbfc0001	-0.00769043
245	0x3dd8f681	0.10593892
246	0x3db00012	0.085937634
247	0xbea41b7e	-0.32052225
248	0x3e22ab3b	0.15885632
249	0xbabaf987	-0.0014265039
250	0xbcf574bc	-0.02996289
251	0xbd5687f5	-0.052375752
252	0x3dfa8b5f	0.12233614
253	0xbd82dbd1	-0.06389583
254	0xbeca03b7	-0.3945596
255	0xbdf6ea36	-0.12056391

fc2.bias f4 [150]
0	0xbdf6cbaa	-0.120505646
1	0x3e26a481	0.16273691
2	0xbd1513f2	-0.036395974
3	0xbbfa5ad0	-0.00764022
4	0x3c801221	0.015633645
5	0xbe1affc3	-0.15136628
6	0x3c6e9b1f	0.014563351
7	0x3e909881	0.2824135
8	0xbd2a7cdf	-0.041622993
9	0x3ee8497b	0.4536856
10	0x3d9d17ad	0.076705314
11	0xbe150b88	-0.1455518
12	0xbd9d9ed4	-0.0769631
13	0xbc08afcc	-0.0083426945
14	0xbda177ef	-0.07884204
15	0x3d4766e0	0.048682094
16	0xbde6d21a	-0.112705424
17	0xbda825c8	-0.08210331
18	0x3b52bedb	0.0032157216
19	0xbe37c1de	-0.17945048
20	0x3cdaad15	0.02669386
21	0xbdb6f705	-0.08933834
22	0xbc841855	-0.016124884
23	0xbd4ff153	-0.050767254
24	0xbdf5c7d9	-0.120010085
25	0x3e9b744d	0.30362168
26	0x3e1f9f63	0.15588145
27	0xbde879e0	-0.11351371
28	0xbcf71a22	-0.030163828
29	0x3c3d2119	0.011543536
30	0xbd912b44	-0.070883304
31	0x3da47eb9	0.08031983
32	0xbdb8caf3	-0.090230845
33	0xbd404996	-0.046945177
34	0xbe022e90	-0.12713075
35	0xbd4f0577	-0.05054232
36	0xbe1052da	-0.14094105
37	0xbe205399	-0.1565689
38	0xbd693396	-0.05693396
39	0xbde4d507	-0.11173444
40	0x3e248993	0.16068105
41	0x3bac03e9	0.0052494896
42	0xbc9ed41b	-0.01938825
43	0x3cd1d1bc	0.025612704
44	0xbd880322	-0.066412225
45	0x3db74257	0.089482
46	0xbcfdcf50	-0.030982643
47	0xbd32c54d	-0.043645192
48	0xbc31f67c	-0.010861989
49	0xbdae9dd4	-0.08526197
50	0xbe697216	-0.22797427
51	0xbd1838fb	-0.037163716
52	0xbd9b4ad0	-0.07582629
53	0x3c1e0b45	0.009646242
54	0x3d293c5e	0.041317336
55	0x3c881093	0.016609466
56	0x3c033191	0.008007423
57	0xbd7300dd	-0.059326995
58	0x3c2ffe49	0.010741779
59	0xbd2d93c6	-0.042377256
60	0xbdab5be0	-0.08367133
61	0xbd3665d5	-0.04453071
62	0xbd1fabca	-0.03898219
63	0xbd65ffeb	-0.056152266
64	0xbd796074	-0.060883
65	0xbcdf9643	-0.02729333
66	0x3cec9210	0.028878242
67	0x3c9cb292	0.019128118
68	0x3eaf28e7	0.34210894
69	0x3c91e4ce	0.017809298
70	0x3df8e8bd	0.12153766
71	0x3e25ca51	0.16190459
72	0xbd88c2ef	-0.06677806
73	0x3c4a17e6	0.012334799
74	0xbde28b4e	-0.110617265
75	0xbd802aa1	-0.06258131
76	0xbdebf8b0	-0.11522043
77	0xbdd4f998	-0.10399169
78	0xbc83a192	-0.016068254
79	0xbd9d7555	-0.07688395
80	0x3ec2db12	0.38057762
81	0xbd9d64ad	-0.07685218
82	0x3c73fd25	0.014891897
83	0x3c2e0da6	0.010623371
84	0xbd152da9	-0.036420498
85	0xbdb44fdd	-0.08804295
86	0xbbe01c65	-0.0068393224
87	0xbdb9c26b	-0.090702854
88	0xbe224488	-0.15846455
89	0x3ccc0595	0.024905005
90	0x3c13500b	0.008991252
91	0x3cb77f4a	0.022399563
92	0x3c5045b9	0.012711936
93	0xbc95d3e0	-0.018289506
94	0x3c232649	0.009957858
95	0xbda5bea1	-0.08093
96	0x3e10fdff	0.14159392
97	0xbc9825f1	-0.01857278
98	0xbdf40e55	-0.11916796
99	0x3dd9272f	0.10603177
100	0xbdfa8feb	-0.122344814
101	0xbdafebd6	-0.08589904
102	0xbca60b40	-0.020269036
103	0xbd0e1380	-0.034686565
104	0x3e49e1b0	0.19714999
105	0x3e776380	0.2415905
106	0x3db8c383	0.09021666
107	0xbd01620d	-0.03158765
108	0x3e345d6a	0.1761376
109	0xbcfe5e46	-0.031050812
110	0xbd709c47	-0.058742788
111	0xbe7a09c3	-0.24417786
112	0xbea83174	-0.3285023
113	0x3e6c7e4b	0.23095052
114	0xbe0f98e3	-0.14023165
115	0xbe580b67	-0.210981
116	0xbdbc33b4	-0.09189549
117	0xbc998c41	-0.018743636
118	0xbc814982	-0.015782122
119	0xbdf9b78c	-0.12193212
120	0xbd09b188	-0.033616573
121	0xbe1b6d8e	-0.1517851
122	0x3dc67c89	0.09691722
123	0xbdc1d51c	-0.094644755
124	0x3c9fb456	0.01949517
125	0xbd061dbd	-0.032743204
126	0xbd233fb7	-0.039855685
127	0xbd4c440c	-0.049869582
128	0xbda8cf9e	-0.08242725
129	0xbd389c15	-0.045070726
130	0xbdbb4882	-0.09144689
131	0x3d02dfdf	0.03195178
132	0x3e0f891e	0.1401715
133	0xbe2a71a7	-0.16644917
134	0xbd18a1ab	-0.037263554
135	0xbd84287c	-0.06453034
136	0xbe07bbb5	-0.13255198
137	0xbdd04d14	-0.101709515
138	0xbcc26778	-0.023730978
139	0x3e25ef3b	0.1620454
140	0xbd84b3b5	-0.06479589
141	0x3ace418a	0.0015736085
142	0xbcc0010c	-0.023438
143	0xbd412d37	-0.04716226
144	0xbe02dca3	-0.12779479
145	0xbe25ace5	-0.16179235
146	0xbd0c7f90	-0.03430134
147	0xbda4f8b6	-0.0805525
148	0xbd8ba5c3	-0.06818726
149	0xbe238885	-0.15970047

fc3.weight f4 [1, 150]
0	0x3b6eda69	0.00364461
1	0xbc29108c	-0.0103188865
2	0x3b74f2ba	0.0037376122
3	0xbcc4c3ee	-0.024019208
4	0xbbc34852	-0.005959549
5	0xbb9f3ed7	-0.004859786
6	0xbc6be5d2	-0.014398055
7	0x3c9a29bd	0.01881873
8	0x3a624f30	0.00086330157
9	0xbc164fa3	-0.00917426
10	0xbc84de38	-0.016219243
11	0xbc2c91d5	-0.010532816
12	0xbceb74c3	-0.0287422
13	0xbc4c598d	-0.012472522
14	0x3a04dcbf	0.0005068294
15	0x3c43b548	0.011945076
16	0x3bf7884a	0.0075540887
17	0xbb507d87	-0.0031813101
18	0x3b9819a6	0.0046417294
19	0xbc319026	-0.01083759
20	0xbd014170	-0.031556547
21	0xbc25e413	-0.010125178
22	0xbc25e7be	-0.010126052
23	0xbbac8b2c	-0.005265614
24	0xbc36d931	-0.011160181
25	0x3c9d108a	0.019172926
26	0xbc69faef	-0.014281019
27	0x3b7f1596	0.0038922778
28	0xbcc79686	-0.024363767
29	0xbc857f74	-0.016296126
30	0x3b549044	0.0032434622
31	0xbc00f27c	-0.007870313
32	0x3c59efe8	0.013301827
33	0xbcbde42d	-0.023180092
34	0x3c49852c	0.012299817
35	0x3c708ea9	0.01468245
36	0xbc38f2f9	-0.011288398
37	0xbc43796d	-0.011930806
38	0x3c9cb581	0.019129517
39	0x3d1a114f	0.037614163
40	0xbc0b2c33	-0.008494425
41	0x3c3de565	0.011590336
42	0x3c9f6756	0.019458454
43	0xbc38d023	-0.011280092
44	0xbb862256	-0.0040934486
45	0xbca4c2ab	-0.020112356
46	0x3c89f42e	0.016840067
47	0xbb9241b5	-0.0044633993
48	0x3c417078	0.0118066
49	0xbc7f3288	-0.015576012
50	0x3c07c9f5	0.008287896
51	0x3cbe7427	0.023248745
52	0x3cb1304c	0.021629475
53	0x3b88c024	0.0041732956
54	0x3c85ca1e	0.016331729
55	0xbc20da0e	-0.009817613
56	0xbba2e40f	-0.0049710344
57	0x3c6547c7	0.013994164
58	0xbc4861e9	-0.012230375
59	0x3cf3d5cb	0.02976503
60	0x3bfdfe7f	0.0077512856
61	0x3c8d5515	0.017252484
62	0x3cadb8f9	0.021206366
63	0x3c383a09	0.011244305
64	0x3c5b10e6	0.013370728
65	0xbcbd4c88	-0.023107782
66	0xbc9107fa	-0.017703999
67	0xbba0ca03	-0.004906894
68	0xbbdf349e	-0.0068116924
69	0x3cb435fe	0.021998402
70	0x3c3157e4	0.010824177
71	0x3c854ed4	0.01627294
72	0x3c710b67	0.014712191
73	0xbc928460	-0.017885387
74	0xbc9b52b8	-0.018960342
75	0x3b3bda04	0.0028663883
76	0xbc44f210	-0.012020603
77	0x3c3560bc	0.011070427
78	0xbc566007	-0.013084418
79	0x3bff9378	0.007799562
80	0xbbae36be	-0.0053165844
81	0xbc1ef707	-0.009702451
82	0xbbac1365	-0.0052513354
83	0xbb8b68ce	-0.004254437
84	0xbb7b81d9	-0.0038376956
85	0x3c194e87	0.009357101
86	0xbc8fe510	-0.01756528
87	0x3b444391	0.00299475
88	0x39aebc11	0.00033327987
89	0x3ced4f0c	0.028968357
90	0x3cac30e0	0.0210194
91	0xbcb7b50b	-0.022425195
92	0xbc7a1f9a	-0.015266323
93	0x3c5ab833	0.013349581
94	0x3cd6b898	0.026211068
95	0xbc5971a4	-0.013271723
96	0x3cad2e82	0.02114034
97	0x3adf94ef	0.0017057935
98	0x3b6dfea2	0.0036315103
99	0x3c55871d	0.013032702
100	0xbac7d013	-0.0015244506
101	0xbbc8c7f4	-0.006127352
102	0x3ccdb9d3	0.025113022
103	0x3c9eff57	0.019408865
104	0xbb94192c	-0.0045196023
105	0xbc5e0f02	-0.013553383
106	0x3c22eba8	0.00994388
107	0x3c9169d8	0.017750666
108	0x3cab0783	0.020877605
109	0x3cbbdf5f	0.02293366
110	0xbc0e6687	-0.008691437
111	0xbc6012da	-0.01367637
112	0xbc7e889d	-0.015535501
113	0xbc0aa366	-0.008461809
114	0xbc1e5151	-0.009662942
115	0xbb2faf32	-0.0026807305
116	0x3cb4197c	0.021984808
117	0x3ccfb083	0.025352722
118	0x3c63206e	0.013862712
119	0xbc40b109	-0.0117609585
120	0xba56d31a	-0.0008194909
121	0x3b9e9f21	0.004840747
122	0xbc18f38d	-0.009335411
123	0x382f16d0	4.1744497e-05
124	0xbcba9e93	-0.022780692
125	0x3ca5730c	0.02019646
126	0xbbc6f329	-0.0060714674
127	0x3c8694f1	0.016428443
128	0x3cbbe3a3	0.022935694
129	0x3cb936fc	0.022609226
130	0x3b128090	0.0022354461
131	0x3cde31d6	0.027123373
132	0x3ca00a1f	0.019536076
133	0xbc8807ba	-0.016605247
134	0x3b6a5f86	0.0035762503
135	0xbac75cf9	-0.0015210203
136	0x3c3a3519	0.0113651985
137	0xbc48dd5b	-0.0122598065
138	0xbce0c219	-0.027436303
139	0xbc239ab3	-0.009985614
140	0x3cb62279	0.022233235
141	0x3b90a4a8	0.00441416
142	0xbc932a2d	-0.017964447
143	0xbb591f13	-0.0033130094
144	0xbc4320af	-0.011909648
145	0xbc598840	-0.013277113
146	0xbbb3271d	-0.005467309
147	0xbb42aeed	-0.0029706315
148	0xbb5b9e39	-0.0033511056
149	0x3b0840f4	0.0020790668
